Outputs/optuna_cnn_k_mers.pt (torch, 691623 bytes, 14 tensors)

embedding.weight f4 [1025, 64]
000000 00 00 00 00 00 00 00 00 00 00 00 00 00 00 00 00
       0.0 0.0 0.0 0.0
000010 00 00 00 00 00 00 00 00 00 00 00 00 00 00 00 00
       0.0 0.0 0.0 0.0
000020 00 00 00 00 00 00 00 00 00 00 00 00 00 00 00 00
       0.0 0.0 0.0 0.0
000030 00 00 00 00 00 00 00 00 00 00 00 00 00 00 00 00
       0.0 0.0 0.0 0.0
000040 00 00 00 00 00 00 00 00 00 00 00 00 00 00 00 00
       0.0 0.0 0.0 0.0
000050 00 00 00 00 00 00 00 00 00 00 00 00 00 00 00 00
       0.0 0.0 0.0 0.0
000060 00 00 00 00 00 00 00 00 00 00 00 00 00 00 00 00
       0.0 0.0 0.0 0.0
000070 00 00 00 00 00 00 00 00 00 00 00 00 00 00 00 00
       0.0 0.0 0.0 0.0
000080 00 00 00 00 00 00 00 00 00 00 00 00 00 00 00 00
       0.0 0.0 0.0 0.0
000090 00 00 00 00 00 00 00 00 00 00 00 00 00 00 00 00
       0.0 0.0 0.0 0.0
0000a0 00 00 00 00 00 00 00 00 00 00 00 00 00 00 00 00
       0.0 0.0 0.0 0.0
0000b0 00 00 00 00 00 00 00 00 00 00 00 00 00 00 00 00
       0.0 0.0 0.0 0.0
0000c0 00 00 00 00 00 00 00 00 00 00 00 00 00 00 00 00
       0.0 0.0 0.0 0.0
0000d0 00 00 00 00 00 00 00 00 00 00 00 00 00 00 00 00
       0.0 0.0 0.0 0.0
0000e0 00 00 00 00 00 00 00 00 00 00 00 00 00 00 00 00
       0.0 0.0 0.0 0.0
0000f0 00 00 00 00 00 00 00 00 00 00 00 00 00 00 00 00
       0.0 0.0 0.0 0.0
000100 d3 da 70 3f d0 1e 1b bf 9e 60 4a 3f f9 d9 9d 3f
       0.940839 -0.6059389 0.79053676 1.2332145
000110 7e fc 88 3f c2 ca 98 bf 42 9f fe 3e 48 31 99 3f
       1.0702055 -1.1936877 0.4973088 1.1968164
000120 d9 b7 8a 3f 03 24 0e 3e 25 2f f9 3e 14 00 6c 3e
       1.0837356 0.13880925 0.4866878 0.23046905
000130 dc 00 b8 be 21 67 26 3e 39 5c 93 bf 95 35 e0 bf
       -0.35938156 0.16250278 -1.1512519 -1.7516352
000140 1f 29 c8 bd c2 59 f4 3f bb 8f 79 3f 29 1c 02 40
       -0.09773468 1.9089892 0.9748494 2.0329688
000150 8d 47 02 3f 71 00 b9 be bc 22 02 40 d0 c1 a2 3f
       0.5089043 -0.3613315 2.03337 1.2715397
000160 aa 94 9b 3f 1b 02 02 3f 18 89 d2 3d b1 1c d6 3e
       1.2154744 0.5078446 0.10280055 0.41818765
000170 79 8b 14 bf 73 13 84 3f 5c 3c 28 3f 4c bc 6e 3f
       -0.5802532 1.0318435 0.657171 0.9325607
000180 40 6e a3 bf 41 2c f1 3e b2 1c 00 c0 32 50 92 bc
       -1.2768021 0.47104076 -2.0017514 -0.017860506
000190 2c 28 d4 3f f3 2f 15 3e d9 ae 2c 3c 39 eb f7 3f
       1.657476 0.14569072 0.010539734 1.9368659
0001a0 4d cf 8f bf e2 d0 cc be a8 7b 37 bf 89 9a 06 c0
       -1.1235138 -0.40003115 -0.7167306 -2.103182
0001b0 56 18 ad bf 1f 69 ae be d7 45 2a 3f 15 59 0a be
       -1.3523052 -0.34064576 0.6651282 -0.13510545
0001c0 7a de 62 3f 79 9a 79 3e 4f 46 72 bf 67 b0 81 bf
       0.8862072 0.24375333 -0.9463853 -1.0131959
0001d0 3a 6c be 3f 70 3d 1e c0 c9 b7 e3 bf eb 96 1d 40
       1.4876778 -2.4724998 -1.7790462 2.4623363
0001e0 1a a6 8e 3f 86 74 85 bf 89 73 3d be 15 c2 40 3f
       1.114444 -1.0426185 -0.18501104 0.75296146
0001f0 f9 48 8c 3e bc c3 c6 be 1d ce 73 bf 58 9f 6a bf
       0.27399424 -0.38821208 -0.9523638 -0.9164939
000200 2c f0 f1 be 2d 66 cc 3c 1b 69 03 bf a6 3b 79 3e
       -0.4725355 0.024951065 -0.51332253 0.2433916
000210 9b 4c 23 40 a2 b9 55 bf 2d c1 52 be df 74 cb bc
       2.5515506 -0.8348638 -0.20581503 -0.024836002
000220 04 ec 4c bf c2 61 8a 3e e8 6c 3e bf 5b bc cc 3e
       -0.8004763 0.27027708 -0.7438493 0.39987454
000230 76 5c 8e bf de bf 8c bf 54 5c 69 bf fd d3 a6 3f
       -1.1121967 -1.0996053 -0.91156507 1.3033444
000240 dc 05 f8 3e f9 bf 00 3b 6b 89 57 be 48 ec 10 3f
       0.4844197 0.0019645675 -0.21048515 0.56610537
000250 73 90 00 bf c4 b7 ef 3d b4 bf 6b bf 38 e7 92 3e
       -0.5022041 0.117049724 -0.9208939 0.2869203
000260 2b d3 52 3f 50 dd 80 bf 02 c5 b0 3f 9b cc 43 3f
       0.82353467 -1.0067539 1.3810122 0.7648408
000270 0a 93 10 3f c8 82 7c 3b 3a 57 8e bf bc 6a d1 be
       0.56474364 0.00385301 -1.112037 -0.40901744
000280 7f 58 de 3f 4f 09 93 3e 3b 2d 33 40 37 fb 85 3f
       1.7370757 0.2871804 2.7996356 1.046729
000290 1c 75 bc be 4f 70 01 bf b2 e4 9e bf 88 b6 0e 3e
       -0.36808097 -0.50561994 -1.2413542 0.13936818
0002a0 83 e5 c3 3f bd c0 3c bf 24 d5 42 40 4f d5 05 c0
       1.5304416 -0.73731595 3.044259 -2.0911443
0002b0 1d e3 de 3e b0 7e 34 3f f5 9b 96 bf 2f 00 5f bf
       0.4353265 0.7050581 -1.1766344 -0.87109655
0002c0 c1 33 35 3f c9 34 ac bf 10 5d b4 3e bc ea 89 be
       0.70782095 -1.3453609 0.3522725 -0.269369
0002d0 52 c6 d7 be 9b e3 50 bf d7 c4 46 3f 79 00 21 be
       -0.42143494 -0.815973 0.77644104 -0.15722837
0002e0 ef d8 f5 3e 4b c0 ad be c2 4c 5a 3f d3 71 b0 3f
       0.4801707 -0.3393577 0.85273373 1.3784736
0002f0 0b 03 45 be e0 b1 45 bd c1 cf 1e 3f 79 bd 1d bf
       -0.19239442 -0.048265338 0.6203576 -0.6161724
000300 dd a7 15 bc 56 c5 dd 3e 35 83 75 3f 31 ef f1 bf
       -0.00913426 0.43314618 0.9590333 -1.890112
000310 5c 32 bb be 5c d4 cf 3e df d7 14 3f b9 23 8d 3f
       -0.3656186 0.40591705 0.58141893 1.1026527
000320 1a 10 9b bf 21 6e bb 3f f0 a0 95 3f 5b 34 7d 3f
       -1.2114289 1.4642984 1.1689739 0.98908013
000330 08 69 c4 be b6 cd ea 3f 54 55 dd be dc fa 78 3e
       -0.38361382 1.8344028 -0.43229163 0.24314445
000340 08 fc 40 bf 0a 63 8e 3f ca b7 53 40 bc 5f b2 bf
       -0.7538457 1.1123974 3.3080926 -1.3935466
000350 1a a7 6b 3e 06 94 1c be 10 d4 4b 3f 12 10 10 c0
       0.23012963 -0.15290841 0.79620457 -2.2509809
000360 7c 91 d4 3f 70 91 4e bf 63 8d 97 3f de 00 10 40
       1.6606898 -0.8069067 1.1840023 2.250053
000370 40 1a 30 bf 38 49 8d be 17 ab dc be ff 67 c5 3f
       -0.68790054 -0.27594924 -0.4309928 1.5422362
000380 0e 90 ca bf 7f 57 8a 3d f3 b0 a2 3f 32 fa 91 3f
       -1.5825212 0.0675497 1.2710251 1.1404479
000390 75 a2 1f 40 98 3f cd be a1 0d ed be 43 76 c8 3e
       2.4942906 -0.4008758 -0.4629946 0.39152727
0003a0 b1 18 06 bf 1b 30 fb bd 8f c4 be 3f a0 89 69 3f
       -0.52381426 -0.12265035 1.4903735 0.91225624
0003b0 ba fb 8d 3f 64 34 66 be 4d 24 52 3f 92 75 95 bd
       1.1092446 -0.22480923 0.8208664 -0.072978154
0003c0 6a 98 3d bf dd 32 84 bf 56 c6 2f 40 3a 83 46 3e
       -0.7406069 -1.0328022 2.7464805 0.19385996
0003d0 c0 46 3b 3f 91 9e 11 bf 39 65 db bf ba eb 6d 3f
       0.7315483 -0.5688258 -1.7140266 0.92937815
0003e0 ff 99 a9 bf 50 ab 96 3f a1 2b 85 3d a7 1c 8d 3e
       -1.3250121 1.177103 0.06502462 0.27560923
0003f0 d5 42 83 bf 6c 1c d2 3e 96 a2 72 3e fe 72 aa bf
       -1.025477 0.4103731 0.23694834 -1.3316343

conv_layers.0.weight f4 [64, 64, 5]
000000 1d 63 95 bd ed 7a 18 be e1 3e b7 3d ee fe 1f be
       -0.07294295 -0.14890642 0.0894754 -0.15624592
000010 c6 08 8c 3e 2a fd d7 3d c6 12 18 3c 26 91 23 3c
       0.27350444 0.10546334 0.00928182 0.009983337
000020 e2 fc 54 3e 4f b9 05 3e 1f 62 5e 3c 07 db 8f be
       0.20799592 0.13058971 0.013573199 -0.28096792
000030 2e 11 42 be 9c 01 68 3c d8 d2 81 bd 1e 85 5d 3e
       -0.18951866 0.01416054 -0.063390434 0.21632811
000040 8b 8e e1 bd 7b a4 5b be b0 ca e2 bd 98 56 41 3e
       -0.11013516 -0.21449463 -0.11073816 0.18880689
000050 e2 7d ae be 9b 32 fb bd 77 54 f5 be 91 11 67 3e
       -0.34080416 -0.122655116 -0.47916004 0.22565295
000060 19 f1 86 be c1 64 34 be 9a be b3 3d a3 03 72 3d
       -0.26355818 -0.1761656 0.08776589 0.0590855
000070 69 7f 76 3d 5d f6 a1 bd 3d a9 b9 bd 55 95 0c 3e
       0.0601801 -0.07908318 -0.09065483 0.1372884
000080 09 d4 c0 bd e2 98 f4 bd 94 e7 8b 3e 0a f4 82 be
       -0.094154425 -0.119432226 0.27325118 -0.25576812
000090 03 4a 3f be ee e9 2b bb 43 fb 2d 3d 29 c2 3f 3d
       -0.18680577 -0.0026231962 0.04247595 0.046816025
0000a0 cd 9e 84 3d 9f 25 de bd 14 d4 95 3c 64 b1 a6 3c
       0.06475601 -0.108470194 0.018289603 0.020348258
0000b0 81 60 b3 bd 05 ed f7 bd 62 d6 bd 3d 83 b7 ed bd
       -0.08758641 -0.12105755 0.09269406 -0.11607268
0000c0 69 ef 0d 3d 23 cc ac bd f9 a5 93 3d ae 18 c6 3d
       0.034652147 -0.084373735 0.07209391 0.09672676
0000d0 fa 6d c3 bd b4 46 23 3d ff 4f f4 bd 0e 78 81 be
       -0.09542461 0.03986235 -0.119293205 -0.25286907
0000e0 8f da 1b bc 23 2e 27 be e4 3d f8 be 20 77 8c bb
       -0.009512558 -0.16326194 -0.4848472 -0.0042866617
0000f0 93 76 f1 bd f4 cc 10 3c 42 0d 21 3e df 40 83 bc
       -0.11790194 0.008837927 0.15727714 -0.016022144
000100 58 3f 37 3e c4 3e 35 be c4 f7 6b be bd a7 bd 3d
       0.17895257 -0.17699724 -0.23043734 0.09260509
000110 9d cf a1 bd ed a7 85 bd d6 d8 96 bd b1 91 f0 3d
       -0.07900927 -0.0652617 -0.07365577 0.117465384
000120 5c 3b 17 3d 5e d2 c4 bd aa 6d 7c bd 86 fc 80 bd
       0.036921844 -0.09610437 -0.06162802 -0.06298165
000130 ea 20 a7 bd 78 c9 10 be 0a cb c0 3d 59 71 e3 3c
       -0.08160575 -0.14139354 0.09413727 0.02776401
000140 4d e5 2f bd 43 3f d3 3d b6 28 bf bd 58 c5 68 be
       -0.042943288 0.103148006 -0.09333937 -0.2273153
000150 d1 26 a5 3d db 8e 25 bd 24 be 00 3e 98 2f 02 be
       0.08064044 -0.04041944 0.12572533 -0.12713468
000160 7e 99 4a be 09 00 0f be 84 dd 16 3b 5d 20 34 3e
       -0.19785115 -0.13964857 0.0023020217 0.1759047
000170 b7 22 70 3d 51 87 a7 be d7 c4 0d 3e 48 3c 24 3e
       0.058626857 -0.32720426 0.1384462 0.1603862
000180 4d ed 51 bd c7 a4 70 be 86 f0 df 3b b5 da 52 3e
       -0.0512517 -0.23500358 0.0068340925 0.20591243
000190 6a 73 82 3e 43 f8 74 3e 7a c9 04 3e 06 16 39 3b
       0.2547868 0.2392283 0.12967482 0.0028241887
0001a0 49 77 f8 bd 1c 9e da bd f7 2f 47 3d 14 2f a3 be
       -0.12132127 -0.10674688 0.048629727 -0.31871855
0001b0 03 f9 2e be 91 a7 9d 3c 85 f2 95 bc fc d3 2e be
       -0.17087178 0.019244941 -0.018304119 -0.17073053
0001c0 0b 70 34 3d 53 7a ad 3d 38 89 06 3d 5c b6 fb bd
       0.044052165 0.08470597 0.032845706 -0.12290642
0001d0 96 e2 01 bc 4c e5 03 bd d2 78 c3 3e 79 59 f7 bd
       -0.007927557 -0.032201096 0.38178116 -0.120776124
0001e0 a1 90 f8 bd b3 ef 49 3d 55 e6 f0 bc 4b 3f c7 be
       -0.12136961 0.04930086 -0.029406706 -0.38915476
0001f0 60 0a e9 3d e4 56 a6 3b b4 c7 40 be f7 a6 85 bd
       0.11378932 0.005076276 -0.1882618 -0.06525987
000200 62 ff 1f bd 04 11 cb 3d 2d 2a b1 bb a3 fd 5d bb
       -0.03906191 0.09915355 -0.005406639 -0.0033873103
000210 cc 0b 98 bd 1e c9 ad 3d 3a 25 a0 bd ee 1f 3f be
       -0.07424125 0.08485626 -0.078196004 -0.18664524
000220 3f 98 dc bb ef d0 b6 bd 23 c3 d4 bd 3c 5f 51 3e
       -0.0067320163 -0.0892657 -0.10388782 0.20446485
000230 b3 60 cd 3c 05 8d 3c bd 76 a0 b2 bd 92 e0 b0 bd
       0.025070524 -0.046032924 -0.08722012 -0.086365834
000240 2a 5f be bd d6 7e 0e 3e 54 ab 49 bd e9 24 49 3e
       -0.09295495 0.13915572 -0.049235657 0.19642986
000250 0f 4f 7c bd 3e 02 10 be 4e f0 9f bd 08 34 eb 3c
       -0.061598834 -0.14063355 -0.07809506 0.028711334
000260 7e ed 5a 3e a9 1e df 3d f2 94 08 3e 17 6d dc 3d
       0.21379659 0.1089452 0.13338068 0.10762995
000270 8c eb 30 3e b3 8b 82 3d d3 c9 24 be ce e1 32 3e
       0.17277354 0.06374302 -0.16092615 0.1746895
000280 5c 79 48 3e 1e 62 07 3c 9c 8c 6c 3e 90 a9 23 be
       0.19577545 0.008263139 0.23100513 -0.15982652
000290 11 80 41 3e 22 0d 90 3e 71 f0 d2 3c 26 b4 91 be
       0.1889651 0.2813502 0.025749417 -0.28457755
0002a0 2d b8 17 3e ed 60 34 be 88 82 9e 3d 86 63 34 3d
       0.14816351 -0.17615099 0.077397406 0.044040225
0002b0 ef 49 b2 3e 45 e9 a5 3e 5a 44 07 3e f0 b7 e3 3d
       0.34822032 0.32404533 0.13209668 0.11119068
0002c0 2f 17 1e bd 01 de 07 3e e6 4c da 3d d2 66 0b 3e
       -0.03859633 0.13268282 0.106591985 0.13613442
0002d0 5b e9 a0 be 30 38 1c 3e 98 5f 17 3e bc fc 10 bc
       -0.31428036 0.15255809 0.1478256 -0.008849319
0002e0 6a 87 e1 3d 7e 5a ec 3d 41 62 9d 3d a4 1e 21 3e
       0.11012156 0.115406975 0.07684756 0.15734345
0002f0 ec ab cb 3d 54 d9 c1 3d 79 d2 63 bc 76 60 01 be
       0.09944901 0.0946528 -0.013905161 -0.12634453
000300 62 e4 80 3e 02 1a 6e 3c 2b 59 39 be 7f 79 5f bd
       0.25174242 0.014532568 -0.18100421 -0.054559227
000310 33 7a 36 3e ca 3a d8 bd e2 8d b8 3e 3e b6 fe bd
       0.17820053 -0.10558088 0.36045748 -0.12437104
000320 27 69 8c bd b9 33 80 3d dc f6 02 be 0c a8 04 bc
       -0.06855994 0.06259865 -0.12789482 -0.008096706
000330 77 dc db 3d 6b 70 b6 bc b8 5c 57 bd 21 2e 03 3e
       0.1073541 -0.022270402 -0.052578658 0.12810566
000340 a2 5b de 3d 46 9c 02 bd d1 08 8a bd 3f 0f a8 3d
       0.10857321 -0.031887315 -0.06739963 0.08206033
000350 be ae b7 bd 96 af 06 be 28 f3 df bd 5c 1b 16 bc
       -0.08968876 -0.13152918 -0.1093505 -0.009161796
000360 70 00 44 3d 24 c9 5c be b2 94 5b 3b 9b f3 4b be
       0.04785198 -0.21561104 0.0033505377 -0.19917147
000370 24 6a ce bd 55 87 16 bd 93 27 b8 bd ca ea 10 3e
       -0.100788385 -0.036750156 -0.08991923 0.14152065
000380 f4 7b 8a 3d a3 ff 1e be 4a de 67 3e b0 3a 20 3e
       0.067619234 -0.15527205 0.2264339 0.15647388
000390 5f dc 13 3e 1d dc 8c be e3 63 f9 bd dd ba 2a 3e
       0.14439534 -0.27511683 -0.12177255 0.16672845
0003a0 39 56 4c bc 10 06 92 bd f0 eb 97 3b 90 e4 24 3e
       -0.012471729 -0.071300626 0.0046362802 0.16102815
0003b0 24 ca 19 3e 74 0e 98 be bc 19 0d 3d 9f c9 ee bd
       0.15018517 -0.29698527 0.03444837 -0.1165955
0003c0 21 fa e2 3e 31 7d b3 bd fe d5 bc 3d 61 4b 5b be
       0.44331458 -0.08764113 0.09220503 -0.21415474
0003d0 a4 df 73 3e 2e fe 11 3d 17 68 63 bc 6d e1 38 be
       0.23815781 0.035642795 -0.013879797 -0.18054743
0003e0 b0 68 a8 3e 83 e3 9f 3d e9 ed a4 3d 9c d6 33 3e
       0.3289237 0.07807066 0.0805319 0.17562336
0003f0 55 63 1f bd a5 d0 f5 bd 24 55 ec 3d c7 de 81 bd
       -0.03891309 -0.120026864 0.11539677 -0.063413195

conv_layers.0.bias f4 [64]
000000 a1 83 88 be 32 1b c0 be 21 69 ff be 86 63 b2 be
       -0.26662925 -0.37520748 -0.49884894 -0.34841555
000010 7d d1 f5 be 5b be 9c be b5 83 df be 5f c1 ee be
       -0.4801139 -0.3061398 -0.43655172 -0.46631905
000020 02 34 f0 be aa 89 c9 be b7 e8 07 bf 6a 20 c2 be
       -0.4691468 -0.39362842 -0.5308947 -0.37915355
000030 3d 19 3f bf c1 02 9d be 43 ee f5 be f2 14 13 bf
       -0.74647886 -0.30666164 -0.48033342 -0.57453835
000040 18 18 3e bf da dc b3 be 73 03 df be 63 13 d4 be
       -0.74255514 -0.35129434 -0.4355732 -0.4142104
000050 e3 03 ae be 06 8e 6a be 48 e1 be be b5 d5 4c bf
       -0.3398734 -0.2290574 -0.3728125 -0.8001359
000060 ee 97 cc be 72 9a 8c be 41 62 da be ae 3e eb be
       -0.39959663 -0.27461582 -0.42653087 -0.45946258
000070 89 1a 14 bf c3 e5 9e be 6b 00 e0 be d2 5e 9a be
       -0.5785299 -0.3103467 -0.4375032 -0.30150467
000080 70 05 9e be 4b f1 31 bf 13 1e bd be 25 b0 cd be
       -0.30863523 -0.6950881 -0.36937007 -0.4017345
000090 20 9c 95 be 6b 0e d8 be b3 4c ca be 21 89 56 bf
       -0.29220676 -0.421985 -0.39511642 -0.8380299
0000a0 db 11 07 bf be fc af be 01 19 d0 be a3 e4 dd be
       -0.5276162 -0.34372514 -0.40644076 -0.43338498
0000b0 49 b2 55 bf a7 44 06 bf d6 2d e0 be 80 1d e3 be
       -0.83475167 -0.52448505 -0.4378497 -0.44358444
0000c0 27 ec dd be 7b 94 9c be 36 db 02 bf fa 68 89 be
       -0.43344232 -0.30582032 -0.5111574 -0.26837903
0000d0 ce 35 a4 be 58 ff 8c be 0c 3e c0 be 5c 9c ef be
       -0.320723 -0.27538562 -0.37547338 -0.4679898
0000e0 1c 85 df be 43 4c 85 be da 38 cb be 16 a1 30 bf
       -0.43656242 -0.26034746 -0.39691812 -0.689958
0000f0 2f e5 28 bf 8e 86 75 be 46 85 eb be 29 21 ff be
       -0.65974706 -0.2397711 -0.46000117 -0.49829987

conv_layers.4.weight f4 [64, 64, 15]
000000 64 4b 19 bd 86 66 77 bc 7b d0 38 bd b2 17 2c bc
       -0.037425414 -0.015100127 -0.045120697 -0.010503696
000010 1e 1b 0e bd 43 37 be 3b a0 e3 51 bd 5b 0b 2e bc
       -0.03469383 0.0058049276 -0.05124247 -0.010622825
000020 b4 36 0c bd 3c 35 14 3b 3d 60 af bc 16 c6 93 3b
       -0.034231856 0.0022614738 -0.021408195 0.0045096977
000030 39 89 58 bd ba 13 36 3c 13 99 90 bb 8c 24 4e bc
       -0.05286524 0.011113102 -0.004412779 -0.012581956
000040 92 43 c0 3b 4d 1d df 3c 12 fb 4e 3c 2a ff 9b bc
       0.00586743 0.027235651 0.012633102 -0.01904257
000050 14 2e 2f bd f1 67 bb 3a 01 ba 27 bd 67 a6 5e bc
       -0.042768553 0.0014297945 -0.04094887 -0.013589478
000060 d7 0e c1 bc 39 a7 8a 3c db 4d 8e 3c 95 af b2 3c
       -0.023566647 0.016925441 0.017371109 0.02181224
000070 ab 52 ab 39 50 fe ff 3b 24 47 0f bd e3 e4 af 3c
       0.00032677254 0.007812299 -0.034979954 0.021471446
000080 a6 50 3a 3d fd 3b db 3c df 35 07 bd 1b 1d ba 3c
       0.04548707 0.026762003 -0.03301036 0.022718957
000090 ba ea e5 3c 06 05 9d 3c f8 ef 99 3b 23 ba b8 3a
       0.028066028 0.019167434 0.004697796 0.0014093559
0000a0 50 1e 4d bc f4 48 1d bc 58 39 d5 3c 43 2d 26 bd
       -0.012519434 -0.009599913 0.02602832 -0.04057051
0000b0 aa 3e 65 bc 0e 77 10 bd 13 00 1b bd 14 70 d2 3b
       -0.013991991 -0.03526979 -0.037841868 0.006422052
0000c0 bd ff c5 bc 47 11 b1 3b de b2 3c bd 32 a5 03 bd
       -0.024169797 0.005403671 -0.04606902 -0.032139964
0000d0 e6 b1 42 bb 60 26 18 bd ba 56 6c bc a9 a8 f0 ba
       -0.0029708087 -0.037145972 -0.014424974 -0.0018360812
0000e0 1b 8a 59 bc c1 c3 dc bc 42 3f 01 bc 27 92 a4 bc
       -0.013277556 -0.026948811 -0.007888617 -0.020089222
0000f0 ff f3 f4 3c b2 f6 2d bd 46 5f 9d 3b cf 0f 7c bc
       0.029901503 -0.042471595 0.0048026172 -0.015384628
000100 2b 06 09 3d 5c 89 01 3d 29 7f 2e 3b 77 8a ac bc
       0.033453148 0.031625137 0.0026626086 -0.021062119
000110 2c 96 b8 bc 11 06 94 bb d3 74 ac bc b1 1f 81 bc
       -0.022532545 -0.0045173247 -0.0210518 -0.015762182
000120 5d 47 3a 3c 37 f3 ca bb ba 4c ee 3b be 38 a5 3c
       0.011369553 -0.0061935442 0.00727233 0.020168658
000130 26 e8 d9 3c 99 18 4e bc 22 56 60 3c 31 80 86 bb
       0.026599955 -0.012579107 0.013692411 -0.004104637
000140 61 82 06 bd 58 63 d6 bc ee b4 00 3c 66 72 39 bd
       -0.032839183 -0.026170418 0.007855637 -0.045275114
000150 a2 0d 54 3c f7 6e 35 bc 99 04 34 bd 11 ce 91 bb
       0.012942703 -0.011073819 -0.043949697 -0.004449614
000160 23 83 de bb ba bc 17 bd 7c aa 6f bc fb ce da 3b
       -0.006790535 -0.037045218 -0.014628049 0.006677506
000170 75 57 fc 3a b8 34 00 bc 6e 15 af 3b f4 ab 3b bc
       0.0019252138 -0.007825069 0.005343131 -0.011454571
000180 0a 64 c3 bc da b6 5b bd 83 f6 55 3c 13 2b fc bc
       -0.023851413 -0.053641178 0.013059261 -0.030782258
000190 0f 47 53 bd 8e a3 f9 bb 84 69 5e bd 15 b5 5e bc
       -0.05158144 -0.007618374 -0.054299846 -0.013592978
0001a0 f6 b1 81 bb 56 2f 12 bc 6f 48 dd bc 6b 40 66 bc
       -0.003957982 -0.008922419 -0.027012078 -0.014053444
0001b0 56 fb b0 3b f8 ef 3f bd c0 d3 cd bb 80 f3 92 3c
       0.0054010553 -0.04685971 -0.006281346 0.017938375
0001c0 5c 11 24 ba 41 9f fe 3c 33 30 1c 3c 80 fc ee bc
       -0.000625869 0.031081798 0.009532976 -0.029173136
0001d0 85 1d 47 bb 96 44 3a 3c 53 12 4c bd 9d 96 64 bd
       -0.0030382585 0.011368891 -0.049822163 -0.0558077
0001e0 fc 8a e2 3b ae b9 e1 bc d0 ee 7e bc ad 1b ab bc
       0.006913541 -0.02755436 -0.015559867 -0.02088722
0001f0 98 46 9e 3c 80 34 0c bd 9b 72 67 bc 68 a1 2e bc
       0.019320771 -0.034229755 -0.014126445 -0.010658599
000200 01 e4 b7 3a 87 75 4c bc 5c f2 e1 bb f8 88 28 3b
       0.0014029742 -0.012479193 -0.0068953466 0.0025716405
000210 0d f0 05 bd bc 2e b8 bc 36 8b 09 bd 5a e2 eb bc
       -0.032699633 -0.022483222 -0.033580028 -0.028794456
000220 39 02 ce bc d4 50 3e bc 24 00 58 bc 3c 38 36 3c
       -0.025147544 -0.011615951 -0.013183627 0.011121806
000230 c1 68 32 bc 05 0b 54 bc 7a 6e 80 bc bf 85 a9 bc
       -0.010889233 -0.01294208 -0.01567768 -0.020693658
000240 9b dc c1 bc d3 71 ba bc 85 32 31 bd 17 7e d0 3c
       -0.023664763 -0.022759354 -0.04326107 0.02545075
000250 11 37 e7 bc 03 17 8a ba 2c eb 80 3c 1a e7 8b bb
       -0.0282245 -0.0010535422 0.015737139 -0.004269493
000260 1d 39 86 3c 7c 56 26 bb 3d bf 72 bc 61 04 4d bc
       0.016384656 -0.0025381139 -0.014816103 -0.012513251
000270 32 02 54 ba 17 48 da bc 00 08 6c bc 89 63 d8 bb
       -0.00080874853 -0.026645703 -0.014406204 -0.0066036624
000280 f1 5b 27 bc 73 d0 45 bd 34 9b 3b 3c 62 82 f1 bc
       -0.010214792 -0.048294496 0.0114505775 -0.029481117
000290 26 d6 45 bd c4 27 9a 3c b2 0e 0e 3d e8 20 18 3c
       -0.04829993 0.01881779 0.034681983 0.009285189
0002a0 91 b3 26 3d a2 bc f7 bc 8a 01 da 3c 1b 40 cd 3b
       0.04069859 -0.030241314 0.026612062 0.0062637455
0002b0 28 c6 32 3c 1e 48 d7 bb fd 21 5b bd 26 00 e7 bb
       0.010911502 -0.0065698763 -0.05349921 -0.0070495782
0002c0 f4 d2 32 bd 9d 4d 66 bb 76 92 d2 3c f3 f6 d8 bc
       -0.04365821 -0.0035141476 0.025704604 -0.026484942
0002d0 41 0c 14 bc 63 42 9f bc f4 9e 14 bd f9 49 e0 bc
       -0.009036125 -0.019440835 -0.036284402 -0.027379023
0002e0 01 f3 2a 3c 90 50 1b 3c 58 1d 8a 3a 6a 3e 8b 3c
       0.010433913 0.009479657 0.001053731 0.016997535
0002f0 07 a6 3f bd 16 a1 db 3c fa e8 a7 3c 87 8e eb bc
       -0.046789195 0.02681021 0.020496834 -0.028754486
000300 43 b9 94 bc 27 4a 06 3b 0a b8 7e bd ca 2d 51 3b
       -0.018154746 0.0020490976 -0.062187232 0.0031918162
000310 e9 b2 9b bc 36 10 ea 3a 55 22 af 3b 93 bc 79 b8
       -0.01900621 0.0017857614 0.005344669 -5.954185e-05
000320 59 b0 0a bd 1e 16 b1 3c cb 2d 04 bd 76 fb 93 bc
       -0.033859584 0.021616992 -0.032270234 -0.018064242
000330 ca ce 0e bd e2 36 d9 bb b9 3d 07 3d e5 6e 24 bb
       -0.03486518 -0.006628857 0.033017848 -0.0025090512
000340 72 4c 30 3c de a9 99 3c 55 21 05 3d 82 25 5e 3b
       0.0107604135 0.018757757 0.03250249 0.0033896868
000350 05 3d 01 3d dd 2f 94 3c ed 5b 1d 3c 9e 72 ef bc
       0.031552333 0.01808923 0.009604436 -0.029229458
000360 88 02 a2 3c 58 e2 4e bb 84 2d f1 bc 12 3f ef bc
       0.019776598 -0.0031568017 -0.029440649 -0.029204879
000370 10 6f 1e bd f2 07 16 bc d1 a4 2c 3c f2 af 95 bc
       -0.038680136 -0.009157168 0.010537342 -0.018272374
000380 ad 59 36 bc 2f 4c dd 3c da d4 f8 bb b3 ad bb 3c
       -0.011129779 0.027013866 -0.0075937333 0.022909975
000390 e7 29 e2 bb 61 0e 10 bd 64 8a 09 bd aa cf 07 3d
       -0.006901968 -0.035169963 -0.033579245 0.03315703
0003a0 6e 54 e6 bc 55 53 46 bc 28 a6 9f bc f5 a7 07 bd
       -0.028116431 -0.012104829 -0.01948841 -0.03311916
0003b0 d4 9b b2 3b 09 06 88 bc ab d3 11 bd 47 7a 53 3b
       0.005450705 -0.01660444 -0.035602253 0.0032268928
0003c0 e2 be 72 bc 68 c1 c0 3c ed 47 01 3d e2 22 9c bc
       -0.014816018 0.023529723 0.031562734 -0.019059602
0003d0 e9 f9 7a 3b a5 92 d1 bc 84 c0 0d bd 61 79 e6 bc
       0.003829593 -0.02558262 -0.034607425 -0.02813405
0003e0 7c 44 f1 3c 43 1c 9f 3c 66 5a b8 bc 2b 0a fa bc
       0.029451601 0.019422656 -0.022504043 -0.030522427
0003f0 8d f4 3c 3c ab 1e 91 bb ad 1a 5e bd 06 c3 a9 bc
       0.011532915 -0.0044287047 -0.05422466 -0.020722877

conv_layers.4.bias f4 [64]
000000 21 d4 14 bc c3 77 83 3c 09 cc 4b bd f2 65 c4 3a
       -0.009083779 0.016048318 -0.04975513 0.0014983995
000010 1a f3 06 3c a0 68 e2 bd 2d f0 a3 bd 66 78 52 3b
       0.008236671 -0.11055112 -0.08004794 0.003211522
000020 3f 1c 20 bd e4 83 9b bd 7e ca 99 bd 85 c4 4a bc
       -0.039089438 -0.075935155 -0.075093254 -0.0123759555
000030 b8 d2 1e bc 89 1c 8a ba 0c 5f 63 bd 7c 50 ce 3c
       -0.009693794 -0.0010537069 -0.055510566 0.025184862
000040 36 15 b1 bb 4f 1f ef bc 02 03 12 bd dd 17 41 3c
       -0.00540414 -0.029189734 -0.0356474 0.011785475
000050 94 6f 1e 3c 6f 5f 8e bc 7c 31 c7 bd f2 b0 66 3b
       0.009670157 -0.01737949 -0.09726235 0.0035200682
000060 bd ae 0c 3d c9 1d 12 bd 11 6c d6 bc 6a c8 d5 bc
       0.03434633 -0.035672937 -0.026174577 -0.026096541
000070 1a 26 16 bd 88 32 b4 bd e5 e5 40 bc 4e ec f5 bc
       -0.03665743 -0.087987006 -0.011773561 -0.030019905
000080 b8 31 29 3c 96 55 9a bd 18 90 24 bc 0a 8a f9 bd
       0.010326795 -0.075358555 -0.01004412 -0.12184532
000090 8c 18 3f bd 3f 24 bc bd f8 d8 40 bd 60 57 e2 bb
       -0.04665427 -0.09186601 -0.047081918 -0.0069073886
0000a0 cc 45 1f bd 26 81 b2 3b 43 ae df 3a e0 7e ab bc
       -0.038884923 0.0054475246 0.0017065484 -0.020934522
0000b0 d9 ea 13 bd 94 68 7d bc bc f8 be bc 03 01 e2 bd
       -0.03611264 -0.015466828 -0.023311965 -0.11035349
0000c0 ed 14 54 be cd bd 57 bd af be 9a 3d 9a 6f 92 3c
       -0.20711108 -0.052671243 0.07555901 0.017875481
0000d0 27 8d 1b bd 50 df ef bc dc 72 88 bc b2 da 30 bd
       -0.03797641 -0.029281288 -0.016656332 -0.043177314
0000e0 1f 44 66 bd 6e 77 0a bd 27 3e 27 bd 86 b0 84 bd
       -0.05621731 -0.033805303 -0.040830757 -0.06478982
0000f0 bd 39 94 3b 8d 14 ae bc 99 c8 05 3e 8d 56 07 bd
       0.0045234845 -0.021250034 0.13064803 -0.033041526

conv_layers.8.weight f4 [32, 64, 7]
000000 c7 dc 15 bd 1f 78 2b 3d 92 53 01 3d 92 c5 5b bc
       -0.036587503 0.041862603 0.03157384 -0.013413804
000010 ed 18 7a 3c e8 27 1e bd 7c 86 ea 3c 38 ca 89 3c
       0.015264732 -0.038612276 0.02862858 0.016820058
000020 cd b7 80 bc 97 d3 99 3b 97 d7 ad 3c cd 24 12 bb
       -0.015712643 0.004694413 0.021220965 -0.0022299767
000030 83 1f ad bc 72 cc 6e bb 96 b3 32 bd 1c d8 a9 3c
       -0.02113319 -0.0036437777 -0.043628298 0.020732932
000040 c2 52 24 bd 17 13 ed 3c 71 75 0e bd d7 a1 e2 bc
       -0.040117987 0.028939767 -0.03477997 -0.027665062
000050 31 ee cf 3c 11 bc 9b 3c 2c 37 62 3c 45 16 ca 3c
       0.025382133 0.019010575 0.013807099 0.024668822
000060 aa 2d a0 3c 78 8b 17 3d e7 88 6c 3c af e7 7e bd
       0.019553024 0.036998242 0.014436937 -0.06223267
000070 ac d8 aa 3b 08 06 e7 bd 4f b1 a4 3d 42 4d 02 3d
       0.0052138176 -0.11280447 0.080416314 0.03181196
000080 55 b4 8f 3c ec e9 56 bc cc fc a7 3d 0b d2 97 be
       0.017542044 -0.013117295 0.08202514 -0.29652438
000090 15 97 e2 bd f9 b9 15 be d2 0f 0d 3e cf 3d 69 3c
       -0.11063973 -0.14621724 0.13775566 0.014235928
0000a0 54 71 88 bc 8c d1 18 3e 3e 29 96 bb 6d 87 fb bc
       -0.016655602 0.14923686 -0.004582553 -0.030704224
0000b0 d5 5b 0c 3e 07 b7 ca bc ee 5c 20 bd 20 c6 8c 3b
       0.13706906 -0.024745477 -0.039151125 0.0042960793
0000c0 71 d9 37 bd be cb 49 bd 01 06 e6 3d e9 33 c2 bd
       -0.044885103 -0.04926657 0.11231614 -0.09482557
0000d0 e0 f9 c0 bd e3 36 59 be 44 0a a3 bd dc b1 d4 3d
       -0.0942266 -0.21212344 -0.079609424 0.103854865
0000e0 51 b5 be bb 04 d7 34 3c 41 99 08 3d 78 34 f1 3c
       -0.0058199544 0.011037592 0.03334928 0.029443964
0000f0 f8 ff 4d 3c f9 5f 3b 3d 13 c7 1d bd 7c 4f 81 3d
       0.012573235 0.045745824 -0.03851993 0.063139886
000100 e2 87 18 bd 27 a3 e5 3b d4 46 89 bd 3c e7 8a ba
       -0.037238963 0.0070079747 -0.067029625 -0.0010597478
000110 d5 b2 08 bd bb 4b ae bd 39 22 10 3c b5 b2 4d bd
       -0.033373673 -0.08510538 0.008797222 -0.050219256
000120 d0 7c 3c bd a2 2d bd 3c ea bb 8e 3c c1 a4 2c 3d
       -0.046017468 0.023093048 0.017423589 0.04214931
000130 d4 58 ac 3c bc 4c 1e bd 2d 1b 54 bc 9b 53 0f 3d
       0.02103845 -0.0386474 -0.012945932 0.03499184
000140 11 c7 28 bc aa e2 62 bd 84 b6 84 bd 19 ec d1 bb
       -0.010301367 -0.055391945 -0.064801246 -0.006406319
000150 c1 cc 5c 3d d7 3b 73 3c b6 e8 75 3c 13 a0 29 bd
       0.053906206 0.01484581 0.015009096 -0.041412424
000160 1d 78 88 3b 5b d7 c2 bc 59 55 1a bc bf 77 dd bb
       0.0041647092 -0.02378433 -0.0094197625 -0.0067586596
000170 d0 9d 6f ba a7 08 16 3d a7 7a 63 bd a9 3b 8d 3d
       -0.00091406424 0.036629345 -0.055536892 0.06896145
000180 bb 01 19 3d a7 67 52 3d 4d b0 aa be 0e f5 7b 3d
       0.037355166 0.05136838 -0.33337632 0.061513
000190 c6 0a 7c 3d 57 33 5e be ad c5 05 3d 4d f9 00 be
       0.06153371 -0.21699272 0.03265922 -0.125951
0001a0 5d 68 22 bd 19 49 a5 bd bd 3f 40 3e 6a 5f b0 3d
       -0.03965031 -0.08070583 0.18774314 0.08611949
0001b0 52 59 17 3e 93 f6 58 bd 26 52 d4 bc 20 06 8b 3d
       0.14780167 -0.052969526 -0.025918078 0.067882776
0001c0 f6 4a ba 3c e0 34 98 bc 0b 39 2f bd ef 96 5a bd
       0.022740822 -0.0185799 -0.04277901 -0.053366598
0001d0 19 69 1e bc 8f 9d eb 3c ff c3 09 3d 01 26 92 38
       -0.009668612 0.028761653 0.033634182 6.968901e-05
0001e0 60 7e 39 bd be e5 48 bd 08 55 fd 3c 0b 7d 11 3d
       -0.045286536 -0.049047224 0.030924335 0.03551964
0001f0 0e 57 c7 3c 57 d2 3a 3c ae 98 22 3d d8 6f 1b bd
       0.024333503 0.011402688 0.039696388 -0.03794846
000200 65 dc 61 3c ae 29 40 bd 7c bc 00 3d 8d d1 11 3e
       0.013785456 -0.04691475 0.031429753 0.14240094
000210 61 cb 03 bd c5 d5 15 3d a1 7c 6e 3d 52 8c f1 bd
       -0.03217638 0.03658082 0.058224324 -0.11794342
000220 75 69 54 3e 62 8f ca bd 70 81 1f 3c 73 75 bf 3d
       0.20743354 -0.09890629 0.00973545 0.093485735
000230 7e 09 ac 3c f6 b1 3a bd 34 2f a0 3c 58 ef 59 bc
       0.02100062 -0.045579873 0.019553758 -0.013301693
000240 c1 73 b2 bb 98 99 0f 3d 4d 97 af 3c 36 6a 46 bd
       -0.005445928 0.035058588 0.02143445 -0.048441134
000250 db 98 4d bd 5a 27 5a bc a2 97 07 bd d6 a7 07 3b
       -0.050194602 -0.013315046 -0.033103593 0.0020699403
000260 a3 ae cf bc e0 97 4f bc 91 0c bf bd 69 db 81 3c
       -0.025351828 -0.012670487 -0.09328569 0.015851693
000270 ac f4 c7 bd 6d 79 9d 3d b4 9e 88 3d 7c 6a 4c 3d
       -0.09763464 0.07689176 0.06670895 0.04990624
000280 c7 2c 84 bc 6c 9a 3b bc ef 3d c1 bc 96 f7 16 bd
       -0.016134633 -0.011450391 -0.023589103 -0.03685721
000290 4d a3 d0 b9 97 c7 32 bd 74 9e e1 bc 36 d6 38 3d
       -0.0003979452 -0.043647375 -0.027541377 0.045126162
0002a0 a9 27 af bd d2 76 c3 bd 3f f7 55 3b 71 96 d0 bc
       -0.085524864 -0.095441476 0.003264859 -0.025462361
0002b0 e4 15 41 3d 6f 87 85 3c 8f ad 28 3b eb d9 e4 3c
       0.047140017 0.016299931 0.0025738215 0.027935943
0002c0 7c 7d 92 bc 03 64 f1 bc e0 1d 2d 3c b0 36 07 bd
       -0.017882101 -0.029466635 0.010566205 -0.03301114
0002d0 5d ce 5f 3d c0 e9 1f bd 94 72 4d 3c c2 9d d0 bb
       0.054640163 -0.03904128 0.012539525 -0.0063664624
0002e0 f9 30 d4 3c 4e 18 07 3d a9 51 af 3c 53 03 22 3d
       0.025902258 0.032982163 0.021401243 0.03955395
0002f0 3c be cf bc 64 f3 33 be b8 11 a7 3d d4 db a3 3c
       -0.025359266 -0.17573315 0.081576765 0.020002283
000300 a8 77 34 be 3d 08 10 3e f9 ef 5a bd 46 f2 80 be
       -0.1762377 0.14065643 -0.053451512 -0.2518484
000310 8e 00 1b 3c b7 ac 97 bc c4 12 47 bc 65 cb f1 3c
       0.0094605815 -0.018514974 -0.01215047 0.029515931
000320 74 f9 a7 3c b7 20 19 bd fe a7 74 3c d6 ea 0e bd
       0.02050469 -0.037384715 0.014932631 -0.034891926
000330 be fb ae bd 65 99 13 bd c2 18 01 3d 27 4c 02 bd
       -0.0854411 -0.03603496 0.03151775 -0.031810906
000340 cc 7e bf 3c d6 f8 d6 bc 5c 7c 7c 3d d4 ec 03 bd
       0.023375891 -0.026241701 0.061642036 -0.03220828
000350 3e 1a 7b bc 3d 69 79 bd 85 d2 09 bd 7c b3 54 bc
       -0.015326081 -0.06089138 -0.033648033 -0.012982246
000360 91 0e b7 3c 9d b3 b4 3c 5b f7 1f bd a2 33 45 3d
       0.022345813 0.022058303 -0.039054256 0.048144944
000370 93 70 b2 3c 43 b4 e5 bc 45 2b b3 bc a1 ba e5 3d
       0.021782195 -0.028040057 -0.021871218 0.11217237
000380 37 9f 33 3d 62 cc 01 3d 3a 31 35 3d df 24 1d bd
       0.04385301 0.031689055 0.0442364 -0.03836524
000390 5f ec fc 3b 25 d9 d8 39 03 71 44 3b 3b 99 50 3d
       0.0077186073 0.00041360516 0.0029974587 0.050927382
0003a0 4b a6 4c 3d 08 e5 5d 3d ed bd 13 bd 43 e9 12 bd
       0.049963277 0.0541735 -0.0360698 -0.035866987
0003b0 4a 39 8d 3d 98 8d fe 3b e9 d0 94 ba 61 66 19 3c
       0.06895693 0.007768344 -0.0011353764 0.009362788
0003c0 21 67 32 3d e4 08 93 3c 8e fe c5 b9 91 f2 f3 3b
       0.043555383 0.017948575 -0.00037764426 0.0074446877
0003d0 5f 2f 29 3d f8 a8 2e 3e c6 0c c7 bd 9c 0f df 3d
       0.041304942 0.17056644 -0.09719233 0.10891649
0003e0 51 a5 1f 3d d3 c2 28 be 9f 7c 7a be e3 5a 99 3d
       0.038976017 -0.1648057 -0.24461602 0.074880384
0003f0 d7 e3 20 bd 4e 12 49 bd 6e 10 a0 3b 2e f9 e3 bc
       -0.039279785 -0.049089722 0.004884771 -0.02782878

conv_layers.8.bias f4 [32]
000000 5e da 55 be 95 78 af 3e 52 e2 e6 be c0 57 73 be
       -0.20884082 0.34271684 -0.45094544 -0.23763943
000010 17 68 a1 3e ab e0 ec bd 69 30 ad 3e f8 44 29 be
       0.31524727 -0.115662895 0.33825997 -0.16530216
000020 6e 0c 61 be b6 66 4b be bd 6d 00 be 2a 5c e6 bd
       -0.21977398 -0.198634 -0.12541862 -0.11248048
000030 41 61 79 3b 33 7b 18 3e 40 22 b3 bd b0 88 75 be
       0.0038052353 0.14890747 -0.08746767 -0.23977923
000040 08 f6 04 bf 6c 9b bc bd ff 26 b4 be 8e db 8e be
       -0.51937914 -0.09209332 -0.35186002 -0.27901882
000050 3d 3d 60 be f9 4d 2e be 41 f0 af be ce b0 4b be
       -0.2189836 -0.17021932 -0.34362987 -0.19891664
000060 45 be a0 3d 35 60 bb 3e 78 18 47 3e 2b 1b 97 be
       0.07848791 0.36596838 0.19442928 -0.29512915
000070 ce 0d 8c bd 14 61 a4 be a8 cb f4 bd 5e ed 16 be
       -0.068385705 -0.32105315 -0.11952907 -0.14738986

conv_layers.11.weight f4 [32, 32, 5]
000000 10 03 7b 3e cc b8 3d 3e 87 45 a7 3d ca fb 5c 3c
       0.24512887 0.18527526 0.08167558 0.013487766
000010 fa 51 c2 bd ac 2c d2 bd 36 06 d9 bd 95 28 74 3c
       -0.09488292 -0.10262427 -0.10596888 0.014902254
000020 aa 30 3d be e6 91 65 be 84 0c 34 3c fa 22 1d 3d
       -0.18475595 -0.22418937 0.010989312 0.038363434
000030 1b 44 0d be bf d5 1a 3e 6d 5c 88 be 4d 27 8d 3d
       -0.13795511 0.151206 -0.26633015 0.06892262
000040 4e 02 85 bb 81 a4 dd bd c8 ac b8 bd 4d 30 93 bd
       -0.0040591126 -0.10822392 -0.090173304 -0.07186947
000050 cc 5a 81 3d 69 3d 80 bd cd 18 69 be ef fa 8b be
       0.06316146 -0.06261713 -0.22763367 -0.27339885
000060 4b 17 12 be 97 13 3d 3d d7 03 37 be dd 54 0d 3e
       -0.14266698 0.04616126 -0.17872559 0.13801904
000070 d5 bf 37 ba 8e 55 df 3c a7 6c 6f be 52 9f b8 bb
       -0.0007009481 0.027262475 -0.23381291 -0.005634227
000080 a0 b2 00 be 29 4e 65 bd a1 e6 12 be 00 2c 0d 3d
       -0.1256814 -0.055982742 -0.1434579 0.03446579
000090 07 b0 b9 bc d2 d3 40 3d 1f 7e 2a 3d f6 1b 1d be
       -0.022666944 0.047077008 0.041624185 -0.15342698
0000a0 76 41 14 be d9 32 f8 bd 25 d7 5b 3d 77 66 f1 bd
       -0.14478096 -0.121190734 0.053671975 -0.11787122
0000b0 65 2f e6 bd b6 34 00 be 53 b2 38 3b 26 47 b9 3d
       -0.112395085 -0.12520108 0.0028182461 0.090467736
0000c0 44 5a 8c be 59 98 8c 3b 2f e9 50 bd 22 b5 8e be
       -0.27412617 0.004290622 -0.05100363 -0.27872568
0000d0 07 25 03 bb c1 26 97 be b3 95 84 be 2d a2 11 be
       -0.0020011084 -0.29521754 -0.2589546 -0.14222021
0000e0 53 a2 70 3d 05 2b 0f be 71 93 de 3d fe 46 2e bc
       0.058748554 -0.13981254 0.10867966 -0.010637043
0000f0 36 f2 fa 3d b8 93 3d 3e 9a 31 27 bc c4 82 41 3a
       0.12253229 0.18513381 -0.010204697 0.00073818513
000100 23 c9 4e be 01 5c 4b be 15 ef 7b bd bd f7 c4 3d
       -0.20193915 -0.19859315 -0.061507303 0.09617565
000110 6f af 35 3c 37 90 f1 bd c9 4e 13 bd b0 ca ed bd
       0.01108919 -0.11795085 -0.035963807 -0.11610925
000120 66 bb 3e 3c 99 7a f8 bd 4d cc 48 3e b2 ca 2f 3e
       0.011641359 -0.12132759 0.19609185 0.17167166
000130 e3 17 38 bd ee 7a fa 3c 68 a4 d2 bc 66 5d a8 be
       -0.044944655 0.030576196 -0.02571316 -0.32883757
000140 4b 60 75 be 0f f9 44 be 72 85 c7 bd 87 6f 37 bd
       -0.23962514 -0.19235633 -0.097422495 -0.044784095
000150 33 9a 80 bd 3f eb a0 bc 8f aa 27 3e 6c 3a eb 3d
       -0.06279411 -0.019643424 0.16373657 0.114857525
000160 0c 9a e7 bd 6e ed e1 bd 60 3e cc bd 21 ae 22 bb
       -0.11308679 -0.11031614 -0.099728346 -0.0024823027
000170 be d6 3d be c8 62 c0 bd 90 9c 7c 3c ce 2d a0 bd
       -0.18538949 -0.09393841 0.015418187 -0.078212366
000180 b7 43 a2 3d 22 44 5c 3d ab 8b 28 bd 77 0d 85 bd
       0.07923072 0.053775914 -0.041148823 -0.06496709
000190 90 c8 89 be d8 72 10 3e 9b e5 32 3c 2e 79 f3 bd
       -0.2691083 0.1410631 0.010919 -0.118883476
0001a0 72 03 91 3d dc 73 cd bd a5 f2 fc 3d f3 8c 32 bd
       0.07080735 -0.10031864 0.12350968 -0.04359145
0001b0 b1 f0 8e 3d 2a 44 0f 3e 00 e0 32 be bb 98 11 be
       0.06979502 0.13990846 -0.17468262 -0.14218418
0001c0 22 7c 3f 3c 4c fe 71 bd a5 97 96 3c 6a 0a 4e bd
       0.01168731 -0.059080407 0.018382857 -0.0503029
0001d0 45 58 1e 3d f2 2c c8 3d 61 56 c9 3d 5f 71 4a 3e
       0.0386584 0.09774198 0.098309286 0.1976981
0001e0 10 a2 57 3d 5a 74 10 bd 81 0e 7f be 4e 83 cc bc
       0.05264479 -0.03526721 -0.24907877 -0.024964955
0001f0 b8 37 62 be 8f 71 50 be 72 32 31 be df 6d 26 be
       -0.22091568 -0.20355819 -0.173044 -0.1625285
000200 fb 71 4f be 32 f2 09 bd 0d c2 c2 be a8 7b 98 3c
       -0.20258324 -0.03367824 -0.38038674 0.018613651
000210 5b ad c5 bd 3b 42 c8 bd ed 5e 27 be f3 00 7d 3d
       -0.096522056 -0.097782575 -0.16344805 0.061768483
000220 64 31 9e bc 79 f9 f4 bd f7 a3 8b be e9 c9 18 bb
       -0.01931066 -0.11961646 -0.27273533 -0.0023313707
000230 4b 4f 01 3e d6 2b 3f 3c 36 8f e9 3c 0f 48 31 3d
       0.12627904 0.011668166 0.028510671 0.04328161
000240 6c 44 67 bd 5b fc a6 bd d9 57 fd bc 99 c0 18 3d
       -0.056461737 -0.08153602 -0.030925678 0.03729305
000250 13 ba 8c bc bd 9c 44 bd de 87 5d be 43 0d 56 3d
       -0.01717857 -0.04800104 -0.2163386 0.05225874
000260 da 52 25 3e 87 84 ab bd 1e 80 26 be c3 9a 7c be
       0.16144887 -0.08374887 -0.1625981 -0.24668412
000270 1d cf 9d 3b 5a b2 b0 bd 48 d6 a8 3d f9 51 c7 3c
       0.0048159496 -0.08627768 0.08243996 0.02433108
000280 68 d6 e0 bd 20 71 ca bd 71 ff 00 3e 65 a0 70 bd
       -0.10978395 -0.09884858 0.12597443 -0.058746714
000290 66 80 3d be 88 d1 c6 3d 90 03 97 3d 05 36 d1 3c
       -0.18506011 0.09707934 0.07373726 0.025538454
0002a0 2b 92 0a 3e 5f b6 53 3e 86 93 2f 3e dd e3 0b bd
       0.13532321 0.20675038 0.1714612 -0.034152854
0002b0 19 eb 3d be 5d a8 1f be 1d 69 b7 bd 81 00 6f 3a
       -0.18546714 -0.15591569 -0.08955596 0.00091172016
0002c0 53 46 76 be cf 41 e8 bd 58 4e a3 bd 03 1d fa 3d
       -0.24050264 -0.11340677 -0.07973927 0.12212565
0002d0 8f 76 04 3d 8d a8 a9 bb ca ae 09 3e bc 78 34 bd
       0.03233963 -0.0051775635 0.13445583 -0.044060454
0002e0 73 6d 16 bc 71 f3 c4 3d c1 cd ed bc 1e 2f 02 bc
       -0.009181368 0.09616745 -0.029028775 -0.007945804
0002f0 bf 78 84 be 48 7f 4f 3d 27 09 db bd ca 64 ba 3a
       -0.25873372 0.050658494 -0.10695105 0.0014220711
000300 11 29 ad bb e9 04 a5 3d d6 93 4b 3d b1 f0 48 be
       -0.0052844365 0.08057577 0.049701534 -0.19623066
000310 d8 ac 5f bc 4b ca 27 be b8 e6 a4 bd 94 a0 31 bd
       -0.013652049 -0.16385762 -0.080518186 -0.04336603
000320 7c 6a 00 3d 25 6e d6 3b f7 76 4d bc be 05 36 be
       0.03135155 0.006543892 -0.01254057 -0.17775628
000330 87 91 af 3d d1 83 0b 3e 2b b6 0a bd 7d f4 fa bc
       0.08572679 0.13624503 -0.033865135 -0.03063416
000340 c6 15 87 bd 39 1c a2 3d 0d e7 08 be 6c 9e fd 3d
       -0.0659595 0.07915539 -0.13369389 0.12383732
000350 0d 4e 5c bc 9a 72 f7 3d 44 3e 7d 3e b8 cc c6 3d
       -0.013446343 0.120824054 0.24730784 0.09707016
000360 15 d4 47 bc 0d 72 d0 bd 14 26 d7 bd e6 c0 e7 bd
       -0.01219656 -0.101780035 -0.1050531 -0.11316089
000370 f1 ca eb bd 6b 36 4f 3e 7c e0 a1 bd 18 73 3a 3e
       -0.115133174 0.20235603 -0.07904145 0.18207967
000380 3d 60 96 3c c9 8c 09 3d 44 12 0d be a9 6e ef bc
       0.018356437 0.03358153 -0.13776499 -0.029227572
000390 c8 34 3b bd bd 1c a9 3d 43 8c ef bd cf ac ac bd
       -0.045704633 0.082574345 -0.11696675 -0.08431398
0003a0 74 32 35 bd 50 c0 55 bd 57 8a 14 3d d2 b6 16 3d
       -0.04423757 -0.052185357 0.036264744 0.036795445
0003b0 26 b8 fa bd f9 d1 0e be 26 0b c4 3d fc 49 ff 3b
       -0.12242155 -0.13947286 0.09572439 0.007790802
0003c0 8c ef a2 3d 4a 45 23 3d d6 e1 1f 3e 5f d2 00 3e
       0.07955846 0.039861 0.15613493 0.1258025
0003d0 f9 37 74 bd 99 5c 48 bd 27 9b a9 bd 00 44 28 be
       -0.059623692 -0.048916433 -0.08281546 -0.1643219
0003e0 27 42 31 be 62 94 e6 3c 0d 18 36 3d af e7 a9 bd
       -0.17310391 0.028146926 0.04445653 -0.08296143
0003f0 1d 08 75 3d 66 4e ad 3d 14 86 f6 3d 78 11 92 be
       0.05982219 0.08462219 0.12037292 -0.28528953

conv_layers.11.bias f4 [32]
000000 df 2e 0b 3e b7 df 3f 3b 94 9c a4 bc 0f 99 80 3e
       0.13592099 0.0029277632 -0.020094194 0.25116774
000010 26 db 14 3e 20 e5 67 3e 40 71 4c be 8c 54 19 3e
       0.14536723 0.22645998 -0.19965076 0.14973658
000020 3a d8 eb 3d a8 ad 8d 3e 84 00 a9 3d ef 3f a7 bd
       0.11515851 0.27671552 0.082520515 -0.08166491
000030 e2 57 9b 3d ce 94 f4 3d 79 e4 ef bc 8e 33 80 3d
       0.07585122 0.11942445 -0.029283749 0.06259833
000040 b9 6b ad bd b3 3f a9 bd 06 ab a4 3e 6e a5 88 3e
       -0.08467812 -0.08264103 0.3216173 0.26688713
000050 6d 0e 9e 3e dd a1 5c 3e 03 ce 06 3e 66 03 8f 3e
       0.3087038 0.21546121 0.13164525 0.2793228
000060 93 e0 0f 3e 7d b9 99 3e 5f c6 b9 bd 28 28 08 3e
       0.14050512 0.3002433 -0.090710394 0.13296568
000070 ba 12 52 bd 0c 20 1e 3d 5a ce 49 3e 7a 74 fa 3d
       -0.05128739 0.03860478 0.19707623 0.122292474

attention.in_proj_weight f4 [96, 32]
000000 0b c3 35 3e fa 06 ad bd fa d0 8e bb ac 94 e8 3d
       0.17750184 -0.08448596 -0.004358408 0.11356482
000010 db 31 13 be e3 67 4d be 39 95 1b bd 55 ac 08 3d
       -0.14374487 -0.20059161 -0.037984107 0.033367474
000020 02 4d a1 3c 20 3f be 3d 60 d2 52 be d8 48 a4 bc
       0.01969004 0.09289384 -0.20588064 -0.020054266
000030 7b 74 07 3f 83 9d 5d 3d 76 11 88 3d 87 86 f6 3d
       0.5291211 0.054105293 0.066439554 0.12037378
000040 6a 76 01 3d 6a 3f 73 3e f2 73 74 bd 60 c1 4d 3d
       0.03160707 0.2375466 -0.059680887 0.050233245
000050 30 40 6d bd c7 f2 45 3e f8 a3 7f 3b bd d9 23 3e
       -0.057922542 0.19330893 0.0039007645 0.1600103
000060 b4 c3 85 3e 63 05 0c bd ac 64 e9 3b 74 6d a5 bc
       0.26125872 -0.034184825 0.0071225967 -0.020193793
000070 59 dc ca 3e 16 6b 5e 3e dd e4 a8 3d 27 b9 dc bd
       0.39621237 0.21720538 0.08246777 -0.107775025
000080 1b de b9 3d ca ed 51 bd f0 14 c4 3e 4c e2 c0 bd
       0.090755664 -0.051252164 0.38297224 -0.09418163
000090 7d 25 7f 3d 76 cd 79 bd 1d 3e 28 be f5 76 08 3e
       0.06229161 -0.06098696 -0.16429944 0.13326629
0000a0 d3 81 34 be 1f 65 85 bd 34 7d 81 3d b1 a8 3b 3e
       -0.17627649 -0.06513428 0.06322709 0.1832607
0000b0 18 1b 5a 3e eb 40 5c bb 09 26 2e 3e fc 26 01 3d
       0.21299398 -0.003360803 0.17006697 0.03153132
0000c0 48 ae ba 3e 74 30 62 3e c4 4f 8e 3c 8c 33 29 be
       0.3646109 0.22088796 0.01737202 -0.1652357
0000d0 92 bd ae be 4e 88 9e 3d 08 6f ca bc 95 ab b9 bd
       -0.34129006 0.07740842 -0.024711147 -0.0906593
0000e0 f3 02 41 3c 48 2e b0 bd 6a 48 37 3c 7f 45 a7 3e
       0.011780488 -0.086025774 0.011186698 0.3267021
0000f0 19 f8 6b 3e 7c e6 be bd 9e 2e 86 3d 62 c7 5f 3e
       0.2304386 -0.09321305 0.0655186 0.21853402
000100 2f db 89 3d a0 a3 a7 3d 1f 32 cb 3d 60 e9 72 3d
       0.06731259 0.08185506 0.09921669 0.059304595
000110 e2 f0 44 3e 28 47 2c be 8e e9 59 3d 29 c5 49 bd
       0.19232515 -0.16824019 0.05320125 -0.049260292
000120 b8 45 a2 bd 8b a9 58 bc f2 b3 74 be 0f 2b 96 be
       -0.07923454 -0.013224016 -0.23896769 -0.29329726
000130 97 57 13 3e 12 98 8f be ea 72 67 be 73 92 1a 3c
       0.14388882 -0.28045708 -0.2260243 0.00943433
000140 1b c5 42 be aa df 83 bc 36 55 01 bd 5e ca 8f be
       -0.19020502 -0.016097862 -0.031575404 -0.2808408
000150 18 65 4e be 92 72 3f bd b0 f5 9e 3e 07 45 ce bd
       -0.20155752 -0.046740122 0.3104682 -0.1007176
000160 6d b4 d5 3d 28 98 b1 3d 1e 09 9d 3c c5 c6 43 3c
       0.10434804 0.086715996 0.019169386 0.011949246
000170 b4 9e 67 3d ba 9f 3d bd 71 3a 00 bd 2f 47 06 be
       0.056547835 -0.046294905 -0.031305734 -0.13113092
000180 14 a7 ce 3e 90 3b 70 3d 70 b5 3c be 28 81 24 bd
       0.40361845 0.058650553 -0.18428588 -0.040162235
000190 7b 6b 3a 3d e5 e9 b0 bd bf 99 5a bd 47 43 8d 3e
       0.045512658 -0.08638362 -0.05336928 0.2759039
0001a0 e4 e9 9a 3e d1 c6 8a 3e 35 93 54 3e ae 10 5e be
       0.3025657 0.2710481 0.2075928 -0.2168605
0001b0 30 dc c8 3e 1b c7 a7 bd 41 43 3a 3e 09 4e 11 3e
       0.3923049 -0.08192273 0.18189718 0.14189924
0001c0 03 24 c8 3d 18 71 3e 3e a1 a2 ad 3d 57 20 45 bc
       0.09772494 0.1859783 0.084782846 -0.012031636
0001d0 6e 41 97 3e 6f a7 78 3d c9 56 70 be 63 66 ed 3d
       0.29542106 0.060706552 -0.23470606 0.11591794
0001e0 fb cf 51 3e 0d ef 89 3e 4d 55 8a bd ad 26 fe bd
       0.20489495 0.26940194 -0.06754551 -0.124097206
0001f0 49 1c 56 3e 2b 9f 60 3e 90 ca 82 3e d9 f8 b5 3e
       0.20909227 0.21935718 0.25545168 0.35541418
000200 4b f4 bf bd 2a 85 87 bd 61 d7 d0 3d 8b be f8 bc
       -0.09372767 -0.06617196 0.1019733 -0.030364295
000210 5e df 68 bd 7d 19 d0 3d 83 e7 02 bf 32 2f a9 be
       -0.056853645 0.101611115 -0.5113451 -0.3304382
000220 f9 cc 36 be 5e 35 d1 bc aa 06 26 3e 67 0d 57 be
       -0.17851628 -0.025538143 0.1621348 -0.21001206
000230 ec a8 95 3d f6 73 b8 bd ff de 17 bd f2 5c a4 be
       0.0730761 -0.09006493 -0.0370779 -0.32102162
000240 96 be 29 3e b0 37 be 3d 98 95 84 3b be ad 15 be
       0.16576609 0.09287965 0.0040461533 -0.14617059
000250 2e af f1 3d 6f 2d fa bd 2c 69 20 3c 69 88 ba bb
       0.11800991 -0.12215697 0.0097907 -0.005692531
000260 01 82 8d 3d f3 13 5f 3b 4c 2a da 3b 98 a1 a9 bb
       0.06909562 0.003403899 0.006657874 -0.005176734
000270 f2 01 7d 3d 1f e4 8f 3e 8e 5d 46 be e0 9a ba 3d
       0.061769433 0.2810373 -0.19371626 0.09111571
000280 51 e2 90 bc 35 2d 33 be 66 a7 13 3e 7d 92 18 be
       -0.017686041 -0.17497714 0.14419326 -0.14899631
000290 9c e2 a3 be c9 be 1b 3d 08 c0 ef be 3a dc 43 be
       -0.32008827 0.038023744 -0.46826196 -0.19126979
0002a0 3b 1a 12 3e e5 b1 6d be 93 db c1 3d 1d ba 3a be
       0.14267819 -0.23212393 0.094657086 -0.18235059
0002b0 75 33 b1 3d 6d f5 5e 3e 30 bb 09 bd ba b4 e3 3d
       0.08652393 0.2177331 -0.03362578 0.11118455
0002c0 9b 68 c7 3d 69 f1 9b be 1d 2c 0e 3e f7 4f ad 3c
       0.09736749 -0.3045762 0.13884015 0.021156294
0002d0 fb 0c f5 bc 87 d7 7f be cd 7e 98 3d 15 66 db 3d
       -0.029913416 -0.24984561 0.0744606 0.1071283
0002e0 93 95 1a 3d c3 44 ba 3d 1e f6 87 bd 85 ec 4d bd
       0.0377403 0.090951465 -0.0663874 -0.05027439
0002f0 5d 35 d0 3d 05 0c ba 3e 44 f2 40 bd e1 84 20 ba
       0.10166428 0.36337295 -0.047106043 -0.0006123316
000300 82 22 9b 3e 47 62 a2 3d 0f 28 94 bd 4f 71 47 be
       0.30299765 0.07928901 -0.07234203 -0.19476818
000310 e1 65 b5 bd 19 fe d8 bc da f6 16 3c 2d 35 0f 3e
       -0.088573225 -0.02648835 0.009214127 0.13985129
000320 4f cd 7d 3c 7d 94 d3 3c 63 63 cf bd a4 be d4 bb
       0.015490844 0.02582764 -0.101263784 -0.0064924527
000330 c8 d0 23 3e 66 a8 aa 3d 89 8c 84 3e d6 2c 3e 3e
       0.15997612 0.08332901 0.2588847 0.18571791
000340 ff c1 94 3e 50 da 23 3e 12 02 06 be fd 82 37 3e
       0.29054257 0.16001248 -0.13086727 0.17921062
000350 9e 5e cb bb 30 36 82 3e 59 ee bf 3d 4c 82 61 3e
       -0.0062063476 0.25431967 0.09371633 0.2202236
000360 41 8d 5f 3d de 5e 12 be 91 60 1b 3d 92 ae 28 3e
       0.05457807 -0.14294001 0.03793389 0.16472843
000370 0a 24 d2 3e 31 36 b5 bd 44 27 65 be 98 a6 30 3e
       0.4104312 -0.08848227 -0.2237826 0.1725105
000380 24 e4 90 bd 32 c1 77 3e 62 fe a8 3e 0f 2b 24 3d
       -0.07074764 0.24194792 0.3300658 0.040080126
000390 c1 49 58 3e 54 60 78 3e f1 0c 8f 3d 03 fe 55 bd
       0.21121885 0.24255496 0.0698489 -0.052244198
0003a0 b6 de 66 bd bb 18 30 3e f3 83 05 be 07 f5 3f 3e
       -0.056364737 0.17196934 -0.13038616 0.18745814
0003b0 8a ef 95 3c 9b d4 d4 3c d0 11 9d 3b 52 d3 47 ba
       0.018302698 0.025980284 0.004793383 -0.0007622737
0003c0 3d b2 d6 bd 77 c2 60 3d a7 9c 2c 3e a2 00 10 3e
       -0.10483215 0.054872956 0.16856633 0.14062741
0003d0 24 af 56 3e fd f0 08 3c 83 a2 95 3e 21 59 de bc
       0.20965248 0.008358237 0.2922555 -0.02714211
0003e0 6f 6d 59 3e f0 33 36 be 2b 70 69 bd 47 1c 06 3e
       0.21233152 -0.1779325 -0.056991737 0.13096724
0003f0 74 1b 2a 3b 0e 0e a8 3d 6a f9 03 bd 97 68 3b bd
       0.0025956305 0.08205806 -0.03222028 -0.04575404

attention.in_proj_bias f4 [96]
000000 ab 53 cd bd 4d 41 b9 bd a6 47 0f 3e 5a 9e 0d be
       -0.10025724 -0.09045658 0.13992175 -0.13829938
000010 52 36 b4 bd e1 b9 01 3e 9c 56 59 be b2 0a f2 3b
       -0.08799423 0.12668563 -0.21224445 0.007386529
000020 6b 17 55 3d ba bd 45 3e d3 38 57 3e 00 ff f0 bd
       0.052024286 0.19310656 0.2101777 -0.117673874
000030 12 60 db bc a3 3a 6c 3e 51 54 cf bd 5b ec 87 bd
       -0.026779208 0.23069243 -0.10123504 -0.06636878
000040 d9 bd 5f 3e 61 66 29 3e dc 5c 13 be ed a2 21 bd
       0.21849765 0.1654296 -0.14390892 -0.03946202
000050 ad 91 a8 be 3c 2f 86 bc 9a bd b1 3e 28 7d da 3c
       -0.32923642 -0.016379945 0.34714967 0.026671007
000060 13 77 9a bc ca 8d 4f 3d 6a c1 0d bd 95 4b b4 bd
       -0.018855607 0.05067233 -0.034608282 -0.08803479
000070 e2 aa 8c 3d 22 0b 15 3c 85 fd 23 3e 9f 6c 29 bd
       0.06868531 0.009096893 0.16014679 -0.041363355
000080 c8 c3 b7 ba 7f 7c eb 3b 15 72 a2 3c d8 a1 51 bd
       -0.0014020139 0.007186472 0.01982979 -0.051179737
000090 f2 8f 07 3b 18 15 3e b9 a9 42 0e bc 52 bc 7c bc
       0.0020685163 -0.0001812767 -0.008682885 -0.015425758
0000a0 9e 6d df 3b f1 93 67 3b c5 d3 de b9 27 18 a1 3b
       0.0068184873 0.0035335983 -0.0004250092 0.0049162093
0000b0 d2 2b 36 3b 3d a1 08 3c b2 bd 69 ba 05 19 e5 3b
       0.0027797115 0.008339223 -0.00089165114 0.006991508
0000c0 cb 72 33 3c 02 3a ca 3a a9 74 ba 3a 6d 58 d6 ba
       0.010952662 0.0015428665 0.0014225441 -0.0016353257
0000d0 51 42 1a bc c0 1f 20 b9 84 b3 60 3b a7 35 88 bb
       -0.009415225 -0.00015270617 0.0034286687 -0.0041567865
0000e0 6d 60 f4 bb d3 cd 87 bb b2 0e 98 3a 37 9a 16 3c
       -0.007457784 -0.004144409 0.0011601059 0.009192041
0000f0 49 67 8c 3b 5b 32 f0 ba ff 7d 79 bb c2 d2 95 bb
       0.0042847735 -0.0018325554 -0.0038069484 -0.0045722434
000100 64 6b b1 b9 c8 f2 70 bd 14 ad 19 3c 08 b3 78 3a
       -0.00033840083 -0.058825284 0.009379644 0.0009487127
000110 e5 c7 c1 bd 5b e6 cc 3d 41 56 2c bd d6 16 1a bc
       -0.09461955 0.10004874 -0.042074446 -0.009404859
000120 f4 fb c3 3c 9f e4 06 bc 62 f5 21 3d 13 53 e6 bc
       0.023923852 -0.008233218 0.039540656 -0.028115785
000130 8c 7a 8c 3d c6 45 00 bd 60 8e ad bb fc 1a a0 3c
       0.068593115 -0.03131654 -0.0052965134 0.019544117
000140 e1 28 a2 bc b0 0b 39 3d ee fa 91 38 25 46 1b bd
       -0.019794883 0.04517716 6.960878e-05 -0.037908692
000150 a2 2a e3 bc a8 4c a8 bc 57 5c 5f 3d 4b fb a0 bd
       -0.02773029 -0.020544365 0.05453142 -0.0786043
000160 a3 b9 56 3d 6d d1 89 bd aa e1 7a bd 99 61 74 bd
       0.05242313 -0.06729398 -0.061250366 -0.05966339
000170 b5 2b 75 3d 94 dd be bc 47 a1 51 3d b1 86 92 3d
       0.059856135 -0.023299016 0.051179197 0.071545966
