Outputs/optuna_cnn_one_hot.pt (torch, 552242 bytes, 25 tensors)

feature_extractor.0.weight f4 [96, 4, 5]
00000000: b88b bb3e d777 6e3f 33e0 ef3e 3bf4 6abf
00000010: bde9 64bf 4d95 adbe b683 8fbf bd81 743d
00000020: c743 0d3f 77b1 d53e 4774 343f ae5d bbbd
00000030: d53f 7d3e f689 1ebf 6e29 3ebf 673f 13bf
00000040: b2d1 80be b043 08bf 7f20 7f3e 9bda 613f
00000050: a9b6 25bf 3fc5 193f f619 09bf 7743 7bbe
00000060: efe1 07bf 5491 9ebc a586 fb3d 4296 3f3f
00000070: 423d 5e3f f2c3 66bf 1484 09bf 892a c3be
00000080: b3c8 77bb 8697 b4bf d666 853f b8c0 583f
00000090: ce0d c1be dce5 65bc 2891 20bd 83c7 55bd
000000a0: 8149 eb3e 1286 e13e 3469 333e 1b75 fcbd
000000b0: f590 af3e cde8 bcbf f970 eabe c5ea a1be
000000c0: abf0 803e 68cc f43d 8f92 95be 039b 8abf
000000d0: 58bb 67bf 3f3f c7be 0282 c2bf fcdd f83e
000000e0: 57f1 583f dec4 183f 9509 953d 0f2a 8ebc
000000f0: bb2a 53bd 0d71 a83e d7ea d93e de4d 37bf
00000100: e176 ef3e 6720 8cbf f53e f0bd fae8 1e3e
00000110: 1f48 2a3f 88b8 d4bd 6417 0abf 0ec4 a8bf
00000120: f6ba b7bf 2bd5 ccbd d7cf 05bf 4254 943f
00000130: f1ec 3c3f 3974 05be 1a3b e8bd 0702 48be
00000140: 59e9 65bf f525 283e a53f 4fbf 8982 483e
00000150: a882 0b3f 3475 acbf 24e8 9cbc 4daf 483f
00000160: a6ed 583f afa3 b1be f266 913f 743f 8dbe
00000170: 878d bebd 5574 01bf d58d 7abe 8f53 cb3e
00000180: b3ce dfbd afbd 17be 71c9 b8be ca9d 09bf
00000190: 9d09 903e 1c87 0ebf ab0f 1d3f ee56 a63e
000001a0: 01ca 293d d4e0 ff3e af6d 383f 6306 3e3f
000001b0: 7422 05be 8f67 903e 0455 513d b35d 65bf
000001c0: 9893 82bf ed19 5fbf 9c44 623b a4d3 9bbf
000001d0: 1637 433f 2774 85bf 7244 1b3e 4d01 19be
000001e0: e2b3 2c3f f85a cf3e 8225 26be 5cdc 223f
000001f0: 3fec 763f 7273 9fbf 1a16 1fbf 764d d7be
00000200: 6dd6 d43e 956f 953d 7cc9 003f 4744 033e
00000210: 73e0 c5be b6b4 cbbe ee76 a6bf 6597 4ebe
00000220: 6578 25be 172b 4d3f df8c 9abe 3bb2 5abd
00000230: ee80 003f 89d9 193f 7342 f13e fd2d 57bf
00000240: f87a a6bf ed69 b6be c45d 85bf bc66 abbe
00000250: 1eff fb3e 6500 fc3e 776d 57bf 7cb6 103f
00000260: 18f3 3cbc 6ae3 d03d efb1 ac3e a912 663f
00000270: 4295 36bf 7177 f73d 3d5c a43e 1205 22be
00000280: 8e1e c83e 6027 8a3e 3943 01bf cfb1 223f
00000290: 557d b9bf bb13 46bf 88e0 363f 9c99 d43e
000002a0: 49be 283f c68f 42bd d848 613e 806e 36bf
000002b0: c077 41bf c648 43be 8404 753e 4e6b 79be
000002c0: 9c8d 93bf 270c fd3e e277 8abf 517e 073f
000002d0: 4a10 113f b291 213e 310b 2c3f 0ebd 363f
000002e0: 2b70 a3be 8770 96bf 6a43 a1bf d913 65be
000002f0: ecd8 143f 94d6 0e3f 5620 fa3e 7ca2 443d
00000300: 54dc d2be bdb9 5abf dad4 3dbf d7a8 40be
00000310: f1ec 593f ec4c 4f3e bb2e 43bf dd5a bb3e
00000320: 7976 533e 1aa5 f3be 519c d03e c539 8d3d
00000330: 53e1 1abf 84ba 593f 5404 d83e 599a 043d
00000340: 04f0 7d3e 2fbf 68be a547 86bf f549 733d
00000350: d739 0cbf d371 0a3f a3d0 ddbe 4638 44bf
00000360: 6413 0b3e e686 bd3d d947 b0bf aa2a 9b3f
00000370: ded4 e2be de4b 623f badd 22bf 97ab b93e
00000380: 90bf 71be e419 123f 6c73 4abe 877b 063f
00000390: 7874 223c d543 6dbf 5c68 a8bf 3dfa edbe
000003a0: f6ce 073f a31d 54be b992 253f 5646 193f
000003b0: afb1 92be 739d b8bf 935d 703e 40fe ddbd
000003c0: bee8 503f 566a 49be 66ad 8d3d 63ec 2cbe
000003d0: c8e4 4fbf 4416 89be 3e90 a2bc b96d fe3e
000003e0: 271a 053e b15c fc3e 52f1 51bd d8f4 f33e
000003f0: 753a 71bf a122 533f cea9 cbbf 31af 60bf
0.36630034 0.9315161 0.46850738 -0.91778916 -0.89419156 -0.3390297 -1.121207 0.05969404
0.55181545 0.41736957 0.70489925 -0.09148727 0.24731381 -0.6192926 -0.74281967 -0.5751862
-0.25159985 -0.5322828 0.2491474 0.8822419 -0.6473184 0.600666 -0.5355524 -0.24537455
-0.5307912 -0.019356407 0.12281541 0.7483865 0.8681222 -0.9014274 -0.5371716 -0.3811839
-0.0037808835 -1.4108741 1.0422008 0.84669065 -0.37705845 -0.0140318535 -0.03920093 -0.052192222
0.45954517 0.440476 0.175206 -0.123270236 0.3429028 -1.4758545 -0.45789316 -0.31624427
0.25183615 0.1195305 -0.29213378 -1.0828556 -0.9052024 -0.3891544 -1.5195925 0.4860686
0.84743255 0.59675395 0.07277218 -0.01735404 -0.051554423 0.3289875 0.4256198 -0.7160319
0.46770385 -1.0947388 -0.11730758 0.15518561 0.665163 -0.10386759 -0.5394194 -1.3184831
-1.4353931 -0.10001596 -0.52270263 1.1588213 0.73799044 -0.13032617 -0.11339398 -0.19532023
-0.89809185 0.1642073 -0.8095649 0.19581045 0.5449624 -1.3473268 -0.019153662 0.7839249
0.8473762 -0.34695193 1.1359541 -0.27587473 -0.09304338 -0.50568134 -0.24468167 0.39712188
-0.109280966 -0.14818452 -0.36091188 -0.5375639 0.28132334 -0.5567491 0.6135203 0.32488197
0.04145241 0.49976218 0.72042364 0.74228495 -0.13001424 0.2820401 0.051106468 -0.895961
-1.0201292 -0.87148935 0.0034525758 -1.2173963 0.7625593 -1.0426072 0.15162829 -0.14941902
0.6746198 0.4049909 -0.16225246 0.6361749 0.9645423 -1.2457106 -0.621431 -0.42051286
0.41569844 0.07296673 0.5030744 0.12819014 -0.38647804 -0.3978631 -1.3005044 -0.2017494
-0.16159208 0.80143875 -0.301856 -0.05339263 0.5019673 0.6009756 0.4712101 -0.8405455
-1.3006277 -0.3562769 -1.041924 -0.33476818 0.49218076 0.4921905 -0.84151405 0.5652845
-0.011532567 0.10199626 0.33729503 0.89872223 -0.713215 0.120833285 0.32101622 -0.15822247
0.3908581 0.26983166 -0.504932 0.63552564 -1.4491373 -0.77373856 0.7143636 0.41523445
0.6591535 -0.047500394 0.22000444 -0.7126236 -0.7557335 -0.1907073 0.23927504 -0.2435734
-1.1527591 0.49423334 -1.0817835 0.5292712 0.5666548 0.15778235 0.67204577 0.71382225
-0.31921515 -1.1753091 -1.2598698 -0.22370853 0.58143497 0.5579617 0.48852795 0.04800652
-0.41183722 -0.85439664 -0.7415291 -0.18814407 0.8512717 0.20244187 -0.7624318 0.3659276
0.20650662 -0.475869 0.4074426 0.06895784 -0.6050007 0.85050225 0.42190802 0.03237376
0.2479859 -0.22729181 -1.0490614 0.059396703 -0.54775757 0.5407993 -0.4332324 -0.76648366
0.13581616 0.092542455 -1.3771926 1.2122395 -0.4430303 0.88397014 -0.6361958 0.36263725
-0.23608232 0.57070756 -0.19770592 0.5253224 0.009915464 -0.9268163 -1.3156848 -0.4647998
0.5305017 -0.2071443 0.64677006 0.5987295 -0.28651187 -1.442305 0.23473196 -0.1083951
0.81605136 -0.1966947 0.06917839 -0.1688705 -0.8120847 -0.267748 -0.01984417 0.49693087
0.12998258 0.49289468 -0.05125553 0.47647738 -0.94229823 0.82474715 -1.5911195 -0.8776732

feature_extractor.0.bias f4 [96]
00000000: 6224 adbc 322f 1f3e b3ac e6bd 26f3 043d
00000010: a36a e8bd a251 e1bd 8a28 d63d 061d 63be
00000020: ef3c bd3d 1946 32bc 9942 d8bc 7f2f 03bd
00000030: 461a 863e 770f e6bd ee02 23be d0a6 62be
00000040: 1309 67be 0c87 323e 0406 073e 1a74 e4bd
00000050: 897b 933c c48c 84bc be48 473d 3a60 b83d
00000060: 0216 153d f657 f03b fa52 5c3e 460c 783d
00000070: 7d51 c6bd 6117 8b3d 2ddd 5ebe 358f 5c3b
00000080: ab46 ecbd 9817 60be aaae c5bd 8121 3dbe
00000090: de8a 853e e99e a43c 71bd 483d 9ae3 863e
000000a0: b955 5fbe 2393 c4be 22aa 243b 291c c23d
000000b0: 7089 5fbe 0f0b b53d d37e 5dbe 69de 6cbd
000000c0: 0e43 efbd 6d9c d3be 2ea3 fbbd f9bc dc3b
000000d0: 967d 38be 8101 cc3d b9c9 6fbe 863b 2abd
000000e0: 0461 7fbe f74b 493c 2d24 5ebd 3b2d 2fbd
000000f0: d35b 6c3e 5a5f ebbb 4070 773e ff6f dbbb
00000100: 15af 323d 1c93 7ebe 1842 613e 2af7 9ebd
00000110: a029 23be e2c1 cf3d 198e 523e 211a aebd
00000120: 8b88 63bd 3796 f3bd 18cd 34be 6efd 903d
00000130: 5da3 483e 96d5 153d 5365 903e 1d8f 2c3e
00000140: a5d8 213c f1c9 d73c 00c8 1dbe e87c 4d3e
00000150: 89b9 4fbc 28ac 4a3e 57fa b1be c433 6ebe
00000160: b90d d73d 4226 65bd 95a2 723e 119d d53d
00000170: 9cb3 8ebd 3a94 17be b9be c2bd dc4c 1fbc
-0.021135513 0.15545347 -0.112634085 0.032458447 -0.11348464 -0.11001898 0.10456951 -0.2217904
0.09240138 -0.01088097 -0.026398944 -0.032027718 0.2619192 -0.112334184 -0.15919086 -0.22133946
-0.22562055 0.17434329 0.13185889 -0.11154957 0.018003242 -0.016180404 0.048653357 0.09002729
0.03639794 0.0073347045 0.21516028 0.06055858 -0.096835114 0.067915685 -0.2176406 0.0033654694
-0.11536916 -0.21884 -0.09652455 -0.18469812 0.2608251 0.020095306 0.04900879 0.2634552
-0.21810044 -0.38393506 0.002512582 0.094780274 -0.21829772 0.0884 -0.21630411 -0.057829294
-0.116827115 -0.4133028 -0.122869834 0.0067363945 -0.18016657 0.09961224 -0.23416795 -0.041560672
-0.24939352 0.012286178 -0.05423372 -0.042767745 0.23081903 -0.0071829977 0.24163914 -0.0066967006
0.043624002 -0.24860805 0.21997869 -0.077619866 -0.15933847 0.10144402 0.20562018 -0.085010774
-0.05555014 -0.118938856 -0.17656362 0.07079588 0.19593568 0.036580645 0.28202304 0.16851468
0.009878312 0.02634141 -0.15408325 0.20067179 -0.012678512 0.19792235 -0.34761307 -0.23261935
0.10500664 -0.05594469 0.23694833 0.10430349 -0.069678515 -0.14802638 -0.09509034 -0.009722915

feature_extractor.1.weight f4 [96]
00000000: c013 5e3f 2353 833f 8fba 8b3f fe1f 863f
00000010: 746d 833f 7642 4a3f d00a 8a3f 566d 413f
00000020: da70 8f3f 7c53 8d3f 9d9b 9c3f 723e 893f
00000030: dbba 9f3f 3a79 993f 9f3b 883f 1326 a83f
00000040: 9028 2d3f 36ec a43f 1d07 a13f 7685 6b3f
00000050: 4fb2 653f 7a88 973f 7ac1 a43f 3c53 ad3f
00000060: b2d3 903f e4c9 4e3f bf8b 8d3f ecc6 553f
00000070: f98a 993f 7736 613f 7af2 9b3f 6c3e 7d3f
00000080: 97e8 913f 6eeb 963f 0b9a 663f e453 823f
00000090: c31d 7f3f afe6 863f 6ad0 7e3f 7e12 803f
000000a0: 181d 8c3f 7bcf 943f bb91 893f 8bbf 963f
000000b0: beb8 843f 6bd7 9e3f 3cc4 b03f 7546 b33f
000000c0: cc88 743f 75d2 753f ce08 5b3f 2885 903f
000000d0: cfae a23f 43e5 4e3f d203 a63f dae8 873f
000000e0: 06b1 8c3f ead9 8b3f 16e4 893f a210 823f
000000f0: efe9 693f 62fa bc3f 33a7 8c3f 7bf0 a03f
00000100: bf69 8c3f 7a8b 953f eadd 6c3f 6219 4f3f
00000110: 81e9 723f d7e0 8b3f b091 8c3f 6367 a13f
00000120: 0951 7b3f 1579 793f 0ed2 8a3f 20b9 903f
00000130: aa60 ad3f a3a7 9a3f 35a5 9d3f 5a40 a03f
00000140: 97de 733f 65f1 a73f 032b a13f cc55 af3f
00000150: 71e8 a03f 7b51 a43f 218b 9a3f c8ce 8a3f
00000160: 8950 813f 23e7 913f 6ff3 b83f 8631 8a3f
00000170: 019d 7e3f 38ea 733f 7e2e 663f 8505 8e3f
0.86748886 1.0259746 1.0916308 1.0478513 1.0267777 0.7900766 1.078455 0.7555746
1.1206315 1.1041102 1.223499 1.0722182 1.2478899 1.199012 1.0643195 1.3136619
0.6764002 1.2884586 1.2580296 0.9200052 0.897252 1.1838524 1.2871544 1.3541026
1.1314604 0.8077681 1.1058272 0.83506656 1.1995536 0.8797373 1.2183373 0.98923373
1.1399106 1.1790597 0.900788 1.0181851 0.9965479 1.0539149 0.99536765 1.0005643
1.0946379 1.1625818 1.0747598 1.1777204 1.0368879 1.240949 1.3809886 1.4005877
0.95521235 0.96024257 0.8556031 1.1290636 1.2709597 0.80818576 1.2969916 1.0617936
1.0991523 1.0925877 1.0772731 1.0161326 0.9137258 1.4763911 1.0988525 1.2573389
1.0969771 1.168319 0.92526114 0.80898106 0.9488755 1.0927991 1.098196 1.2609676
0.98170525 0.9745038 1.0845354 1.1306496 1.3545125 1.2082409 1.2316042 1.2519639
0.9526152 1.3120543 1.2591251 1.3698058 1.2570935 1.2837366 1.2073709 1.0844355
1.0102702 1.1398662 1.444929 1.0796363 0.9945832 0.95279264 0.8991469 1.1095434

feature_extractor.1.bias f4 [96]
00000000: 821f 40bf b2a3 2bbf b038 20bf 7b8c 51bf
00000010: c65d 59bf b5b4 1abf ce93 1fbf 32fd 02bf
00000020: 90da a3bf 16ac 57bf 68fa b7bf eabc 87bf
00000030: 2d17 80bf 90f2 5cbf 02af 55bf e996 78bf
00000040: 383f e4be c38e 95bf 464f 40bf c5e3 5dbf
00000050: fd11 5bbf e69d 02bf 26fd 8dbf 1d52 67bf
00000060: 4342 e9be b768 19bf 917a aebf 3fb0 16bf
00000070: cd9c a6bf 1693 23bf 9616 88bf 9abe a3bf
00000080: 9082 31bf b2f1 6bbf 67cc d2be a78d 61bf
00000090: 38ee 8fbf 1c07 99bf fc41 9abf a546 60bf
000000a0: ff05 2bbf 1e0a 1abf 68b1 6cbf 9a63 5dbf
000000b0: 3f2b 42bf 5c68 7ebf 8f6b 37bf bbda 86bf
000000c0: 0c1c bfbe c6c6 51bf a233 f2be 2984 8abf
000000d0: 4de9 5dbf 7e21 ecbe 0f4c c0bf 0149 5abf
000000e0: 2bb3 a2bf 935d 44bf e8d5 62bf 172b b3bf
000000f0: 436b 0abf 9484 d4bf e134 d8be 1e75 90bf
00000100: e745 63bf 9b96 a4bf 49e3 eabe aac8 e8be
00000110: 29bc 42bf ff68 a9bf e8da 8cbf c07a 9cbf
00000120: 9753 6abf 42c2 15bf 0828 7abf fbd3 6bbf
00000130: 0007 7ebf 52af 3fbf b738 77bf 4f35 d8bf
00000140: 33a2 fcbe 6f5e 7ebf 1bab 8bbf 7f9e 8fbf
00000150: 5760 cdbf 02a8 91bf 83c9 8bbf 75b8 f7be
00000160: 55bd d2be c8c3 29bf 1fac 86bf 395b 7cbf
00000170: a03b 8fbf 3761 98bf 3e88 65bf e801 90bf
-0.7504808 -0.67046654 -0.625865 -0.8185498 -0.8490871 -0.6043199 -0.6233491 -0.51167595
-1.2801075 -0.8424696 -1.4373293 -1.0604527 -1.0007073 -0.8630762 -0.83470166 -0.9710527
-0.44579482 -1.1684192 -0.7512096 -0.86675674 -0.8557432 -0.51022184 -1.109288 -0.9035967
-0.45558366 -0.5992541 -1.3631154 -0.5886268 -1.3016602 -0.6389631 -1.0631893 -1.2792542
-0.6933985 -0.9216567 -0.41171572 -0.8810677 -1.1244574 -1.1955295 -1.2051387 -0.87607795
-0.66806024 -0.6017169 -0.924582 -0.86480105 -0.7584724 -0.9937799 -0.71648496 -1.0535501
-0.37326086 -0.8194393 -0.47305018 -1.0821582 -0.86684114 -0.46119303 -1.5023211 -0.85267645
-1.2710928 -0.7670528 -0.88607645 -1.3997525 -0.5406992 -1.660296 -0.42227843 -1.1285741
-0.8877854 -1.2858461 -0.4587653 -0.45465595 -0.7606836 -1.3235167 -1.1004305 -1.222496
-0.915338 -0.5849954 -0.9771733 -0.9212033 -0.9922943 -0.7487689 -0.96570915 -1.6891268
-0.49342498 -0.99362844 -1.0911592 -1.1220244 -1.6045026 -1.1379397 -1.0920871 -0.48382917
-0.41160074 -0.66314363 -1.0521277 -0.98576695 -1.1190071 -1.1904668 -0.89661014 -1.1250582

feature_extractor.1.running_mean f4 [96]
00000000: 163e a8be b74d 48be b1bb 6abf d313 2bbf
00000010: 4c87 fbbe a90e ebbe 13f3 0ebe cba9 cabe
00000020: 8905 edbe 6f65 86be 2701 9bbe 1cd7 ffbe
00000030: cf82 56be dd62 15bf d6a8 50be 9d23 8dbe
00000040: d539 3fbf 4119 3ebe 6b47 ddbe 0f62 babe
00000050: 7e49 42be 2cb9 a6be 34ca fabe 5ac6 85be
00000060: 7ec1 74be c487 b9be 8ec6 d93d 88a7 5cbe
00000070: 5f66 76be a48e 39bf 6d4b 38bf 8c00 81be
00000080: 56e0 97be d1f1 14bf fb71 eabe 4957 08bf
00000090: d8af 5fbd c8bc c0be 01db 8ebe 1441 e13d
000000a0: 4e7d 3ebf 1aab 5ebf 5fc2 09bf ea08 b5be
000000b0: a7ae e1be c8ef 91be d59c 35bf a044 b6be
000000c0: 2258 f5be 1bd1 3dbf d063 c7be 0442 a3bc
000000d0: 1bd3 3cbf 756a 00bf 9508 56bf cd2e 57bf
000000e0: 2ea4 bebe afb9 97be 996e 08bf cbd5 e6be
000000f0: 18ff 85be c1f3 16be 1e20 70bd 45db 12bf
00000100: 2764 3cbe 1e15 39bf 5d1a 4fbe ce22 85be
00000110: 0236 5bbf 9b65 cfbe 0d6a 10bc df94 39bf
00000120: 33e3 02be 4d59 1abf 7cf5 1fbf b33d 64be
00000130: 0916 e7bc 1008 48be cb96 c5be 3e4a 4cbe
00000140: c5dd 14bd 83ee 13bf a991 05bf 4c6d a63c
00000150: 69f9 c3be f1f5 7dbe 8df0 ebbe 3b94 05bf
00000160: 03fe 68bb 1317 11bf 8794 78be 5210 ad3b
00000170: 3465 3bbe 3a11 31bf 9637 18bf 9245 8cbe
-0.32859868 -0.19560896 -0.91692644 -0.66827124 -0.4912666 -0.45909622 -0.13959913 -0.39582667
-0.46293285 -0.26249263 -0.30274317 -0.49968803 -0.20948337 -0.5835398 -0.20376906 -0.27566233
-0.7469762 -0.18564321 -0.4321855 -0.36402938 -0.18973348 -0.3256315 -0.48982394 -0.26127893
-0.23901936 -0.36236393 0.106335744 -0.21548283 -0.24062489 -0.7248328 -0.7199009 -0.2519573
-0.29663342 -0.5818148 -0.45790085 -0.53258187 -0.054611057 -0.3764403 -0.27901462 0.10998741
-0.7440995 -0.8697983 -0.5381221 -0.35358363 -0.44078562 -0.2850325 -0.7094243 -0.35599232
-0.47918802 -0.74147195 -0.38943338 -0.01992894 -0.7375962 -0.5016244 -0.83606845 -0.8405579
-0.37234634 -0.29633853 -0.5329376 -0.45084986 -0.26171184 -0.14741422 -0.05862438 -0.5736583
-0.1839758 -0.7229785 -0.202249 -0.26003116 -0.85629284 -0.40507206 -0.008814347 -0.72492784
-0.12781982 -0.6029251 -0.62483954 -0.22289161 -0.02820875 -0.19534326 -0.38591608 -0.19950196
-0.03634431 -0.57785815 -0.52175385 0.020315789 -0.38276222 -0.2480085 -0.46081963 -0.52179307
-0.0035551793 -0.56675833 -0.24275409 0.0052814865 -0.18300325 -0.6916691 -0.5945982 -0.27396828

feature_extractor.1.running_var f4 [96]
00000000: e341 ef3f 8fc7 f13f 8150 0140 febb fd3f
00000010: acca e43f ba6b 0640 32ee ea3f 36f7 de3f
00000020: 3a3f 0040 eaaa f73f 957e e33f 91cc 0340
00000030: 1aec 0140 6e0a 0340 f67e eb3f 135a ea3f
00000040: c2d9 1c40 cfc7 0240 0797 e63f 0956 e13f
00000050: 5a0f fe3f de11 e13f ecaf f53f d440 1540
00000060: 16c6 1040 69d7 0e40 d02a e03f 7d34 e43f
00000070: d1b5 ed3f dd53 f63f acba fb3f d282 e53f
00000080: a48a 2940 321e e53f cda8 0e40 ca44 f23f
00000090: 203b ef3f 58be 1140 e0bd 1440 200a dc3f
000000a0: bf85 2b40 981f 1440 8232 0e40 5cbf d83f
000000b0: b3a7 0540 1b9a f03f 68c3 2940 2232 ff3f
000000c0: 4b77 c23f 5b7e b63f 1bb5 0940 c48c dd3f
000000d0: 61ee ea3f 6165 c03f 14c4 1740 7bb3 0f40
000000e0: d103 e53f fbc0 bf3f 623c e33f 4f26 ff3f
000000f0: 3efb b23f 30ac 1140 8c4a 0140 90d3 1c40
00000100: dac3 db3f ab0f e43f f44d 0c40 92f7 fa3f
00000110: 2e89 ea3f 1b87 f23f f7f8 0440 1acf 0340
00000120: c52a f93f dda6 0340 b771 0340 3213 0740
00000130: f767 ff3f 6610 b23f ec8e 0e40 2bcd 1d40
00000140: f497 ca3f 5c09 dd3f eef3 0840 1452 dd3f
00000150: 9e2f 2040 8e22 0540 9e22 c23f 4cee dd3f
00000160: 3930 ec3f 9a0b 3d40 4437 fe3f 7271 0340
00000170: 578a e43f da43 0940 9aea f23f 5c84 cd3f
1.8691982 1.8889025 2.0205386 1.9822996 1.787435 2.100325 1.8353941 1.7419193
2.003859 1.9349034 1.7773005 2.0593607 2.0300355 2.0475116 1.839812 1.8308738
2.450791 2.0434453 1.801484 1.7604381 1.9848435 1.7583578 1.9194312 2.3320818
2.2620902 2.2318976 1.7513065 1.7828518 1.8571111 1.9244343 1.9666343 1.7930548
2.649087 1.789984 2.2290528 1.8927243 1.8689919 2.2772427 2.324089 1.719059
2.6800382 2.3144283 2.2218328 1.6933398 2.0883605 1.8797029 2.6525517 1.9937174
1.5192655 1.4257311 2.1516788 1.7308583 1.8353997 1.5030938 2.3713427 2.2453296
1.789179 1.4980768 1.7752802 1.9933566 1.3982923 2.2761345 2.020175 2.4504128
1.7169144 1.7817281 2.192258 1.9606802 1.8323114 1.8947481 2.0776956 2.0595155
1.9466177 2.0570595 2.0538156 2.1105466 1.9953603 1.3911254 2.2274733 2.4656475
1.5827622 1.7268481 2.1398883 1.7290673 2.5029063 2.080234 1.5166814 1.7338347
1.8452216 2.953833 1.9860616 2.0537992 1.7854718 2.1447663 1.8977845 1.6056018

feature_extractor.5.weight f4 [96, 96, 5]
00000000: f24f 1abf 4dfb dd3c a1da cc3e f3c8 7dbe
00000010: 3cf1 ac3e 60fe 04bf f23a 6e3e fa39 f93d
00000020: d9c5 ab3d 05f8 d0bd eb53 a13e 4155 173f
00000030: 9ad6 3d3f de81 5f3f 771d 923e 76c6 343f
00000040: 1bcd 143f 8a7a 1a3f 90b9 013f 9be1 e7bd
00000050: 1f53 86bf ca1a 853e c4cb a7bd 5d53 0a3e
00000060: 905f 5e3d b160 4e3e 29f0 29bf 0246 7a3e
00000070: c123 8f3e bef4 33bf 8b28 2dbe 38a5 863e
00000080: 1e37 463f e63c 3c3f ea68 313f 7087 abbd
00000090: ab60 2c3f b331 b4be 96c1 f43c c51a 0cbf
000000a0: d58f 7abf b155 dbbd 8b5d 3dbf 637e 56bf
000000b0: a096 523d 1f15 9ebe 4fe0 ea3e 2e33 86bc
000000c0: 8031 143f 052a 6d3f 353e 683e e910 853e
000000d0: 0c0c e1be 4488 6fbf 7924 85bf f5b1 083e
000000e0: f422 3c3f 988c a33e bb84 bfbe 0507 edbe
000000f0: 42ea e1be eb70 fc3e 3efc 92be bde6 53be
00000100: 2cda 173d fd66 5d3e d33b 983f 3d0f 603d
00000110: 4b52 1bbf 804a bdbd dcfb 8b3f 5784 1cbf
00000120: aa61 b4be e975 bfbd d510 263f 8c19 073f
00000130: dfed 27bf 368a 7bbe b4fb 27bf 4d88 6c3f
00000140: 2c5a 19be 8b9e b23e a038 1b3f 58e4 ef3e
00000150: eb1c 1b3e 6265 563f 721e dabd b70f 2ebf
00000160: c78c 85be f424 16bd db05 513f 3e53 d23d
00000170: e985 c73d c6fa 6d3f 17e9 663f 92ea 063f
00000180: fcd1 043e 8ae8 33bf fb4c 59bd f5de ffbb
00000190: 09d8 113e 6c70 09bf 3f1a adbe 9a15 39bd
000001a0: 6d23 263f 00f3 073f 5b7e 4e3f e838 863c
000001b0: 69d5 24bf 8378 8e3e 7b10 ffbe c8ca 13be
000001c0: 9973 86bf 7463 bf3e ce52 8e3c 71d8 0e3f
000001d0: 553b 0d3e 6572 e83e 202f 70bf f988 41bc
000001e0: a883 c5be bf44 f2bd 663a 063f 329d 4f3f
000001f0: f2a5 b4be a86b 74bc 198a 97be 3792 3c3e
00000200: 5d0d f4bd 6d8c 5dbf a745 e83e a083 a3be
00000210: 47f4 f53e 3e67 e33e 729f af3e a326 9a3e
00000220: b781 523f 9792 3d3f 2271 933d 11e9 e63e
00000230: d8ed 003f ac05 a6be 8420 ebbd 290b 5c3e
00000240: 46ba 7c3f 1eac 32bd 9eba 7a3e 8c8b 213e
00000250: 4f40 a0be 55dc 20be e5c3 c13e eaf4 743e
00000260: c7c2 18be ca22 4ebf b24c 6cbf 0cfa 643f
00000270: 216b 88be 06e4 24bd 6549 a03d 5e29 9e3d
00000280: ca24 c6be b91d 203f 7d97 6b3f 1adf 343f
00000290: 14cb 2c3e bbe3 e33e 556c 20be 8eaf 1e3f
000002a0: fbbf f03d aadc 823f 2159 44bb a798 153f
000002b0: be0d cfbe afd5 b6be 186c 50bf c594 17bf
000002c0: ecaf eabd 4304 cabe 43e6 7f3e f33a 843d
000002d0: 368d 88bf 417b c93e a989 42bf dd1c 123d
000002e0: 2897 cebc 5db9 9c3c f1cc 5abf 3c22 3b3e
000002f0: 9ea1 0fbe 348f 513f 2174 613f 8fe4 01be
00000300: 4efb 6bbe 841c b03e 0776 5c3f 4955 1c3e
00000310: 27e0 ddbc 6b02 5a3e e6a4 15be f7ad 96bd
00000320: 03e1 00bf b5df 39bf 4a11 603d 657a 1cbd
00000330: 42c6 203f ee26 c13c 3264 2dbf 3997 fa3e
00000340: 1052 333f d9a3 89bc 09f6 06bf 5620 39bf
00000350: 9f89 8fbd d681 1d3e 2c69 b73f b55e ba3e
00000360: 7485 fd3e 773c f0bd 8c3a a5be 37c2 4f3e
00000370: 9a39 00bf 6387 753d 1d43 f63c 453c f2be
00000380: 760d 7dbf 2beb 07be e95f 62be de4b f7be
00000390: b526 eb3d 72a4 b53d c353 3c3e af27 543f
000003a0: daad ef3e dc01 72be e083 343e 7a70 053f
000003b0: d41f 8b3f 12fb f43e 8220 ea3d 72af 863e
000003c0: cbad 42bf 43eb ccbe a79c 803e cf68 8c3d
000003d0: d62a 833f 5485 6bbf ef72 dd3d 997a c0be
000003e0: bfda a1be 3162 19bf 9ba2 393e f071 7fbe
000003f0: 49e2 43be c5b8 41bf 1467 243e 9fb9 09bf
-0.60278237 0.027097369 0.4001055 -0.24783687 0.33777797 -0.51950645 0.23264673 0.12169261
0.08387346 -0.10203556 0.31509337 0.5911446 0.7415558 0.87307537 0.28538105 0.7061533
0.58125466 0.6034323 0.5067377 -0.11322328 -1.0494117 0.25997 -0.08193162 0.13508363
0.054290354 0.20154072 -0.6638208 0.24440768 0.27956966 -0.7029532 -0.16909997 0.26297927
0.7742785 0.73530424 0.6930071 -0.08375442 0.67335004 -0.35194167 0.029877465 -0.5472835
-0.9787572 -0.10709704 -0.7397086 -0.837866 0.05141318 -0.3087549 0.4587426 -0.016381826
0.5788803 0.9264224 0.2267998 0.25989464 -0.43954504 -0.935673 -1.0401756 0.13349135
0.73490834 0.31943202 -0.37405953 -0.46294418 -0.44124037 0.493049 -0.2870807 -0.20693488
0.0370733 0.21621318 1.1893257 0.054702032 -0.60672444 -0.09242725 1.0936236 -0.61139435
-0.35230762 -0.093486615 0.64869434 0.52773356 -0.6559734 -0.24564442 -0.65618443 0.9239548
-0.14975804 0.34886584 0.6063328 0.468539 0.1514775 0.8374845 -0.10650338 -0.6799273
-0.26083967 -0.036656335 0.8164956 0.102697834 0.09742338 0.92960775 0.90199417 0.52701676
0.12970728 -0.702767 -0.05305193 -0.007808561 0.14242567 -0.5368717 -0.33809087 -0.045186616
0.64897805 0.53105164 0.80661553 0.016384557 -0.6438814 0.27826318 -0.4981726 -0.14432824
-1.0504028 0.37380564 0.017373469 0.55799013 0.13792165 0.45399776 -0.9382191 -0.011812442
-0.38577008 -0.118295185 0.5243286 0.81099236 -0.35282856 -0.014918245 -0.29597548 0.18415152
-0.11916611 -0.865424 0.4536564 -0.3193636 0.4803793 0.44414705 0.34301335 0.30107602
0.8222918 0.74051803 0.07199313 0.4509969 0.5036292 -0.32426202 -0.11480811 0.21488632
0.9872173 -0.043621175 0.24485251 0.15775889 -0.31299064 -0.1570905 0.37844768 0.23921552
-0.14918052 -0.80521834 -0.9230453 0.8944404 -0.26644233 -0.040256523 0.07826499 0.07722734
-0.38699943 0.62545353 0.9202803 0.70652926 0.16874343 0.44509682 -0.15666325 0.61986625
0.11755367 1.0223591 -0.0029960352 0.58436054 -0.40440172 -0.35709903 -0.8141494 -0.5921138
-0.11459336 -0.39456376 0.24990182 0.06456556 -1.0668094 0.39351848 -0.759913 0.035672057
-0.025218561 0.019131357 -0.85468966 0.18274778 -0.14026496 0.81859136 0.88067824 -0.12684844
-0.23045084 0.34396756 0.86117595 0.15266909 -0.027084423 0.21289985 -0.14613685 -0.073574
-0.5034334 -0.72606975 0.054703988 -0.038202662 0.6280252 0.023578133 -0.6773101 0.489435
0.7004709 -0.016801761 -0.5271917 -0.72314966 -0.07008671 0.1538156 1.4328971 0.3640038
0.4951588 -0.11730283 -0.3227123 0.20288931 -0.50087893 0.059943568 0.030061299 -0.47311607
-0.98848665 -0.13273303 -0.221069 -0.4830007 0.11481992 0.08869256 0.18391328 0.8287305
0.46812326 -0.23633522 0.17628431 0.5212475 1.0869088 0.478478 0.114319816 0.2630573
-0.7604644 -0.4002324 0.25119516 0.06855928 1.0247447 -0.9200032 0.108129375 -0.37593535
-0.31612203 -0.59915453 0.18128435 -0.24945807 -0.1912929 -0.7567256 0.16054946 -0.5379886

feature_extractor.5.bias f4 [96]
00000000: 671e acbc 7296 81bd 54a4 a1bc 44ba 7e3c
00000010: 5dcc 8f3c 76ce 153d 059c cdbc 029e 19bc
00000020: f03a 1cbd 7193 e53c 249b e1bb ac09 c13c
00000030: 1b59 afbc f185 1b3c d24b 713d 8857 bf3b
00000040: 0371 353c 0ccf f63b 7771 84bd 9f00 c5bc
00000050: 47d0 1dbc 488a 0d3b e2a2 563b 0bc6 f63c
00000060: 27e7 bfbc 1c11 ee3c c7c5 46bd 5395 8dbc
00000070: 045f 62bd 5e47 98bc 568f 1c3d 1194 0bbc
00000080: d481 0d3d ef41 ef3c d3c4 683d 1615 cebc
00000090: fc5f 20bd 271f f4bc ae82 663d 9241 8c3c
000000a0: b643 c53c 415b 2fbc 1dbc 533d 137f 913c
000000b0: fcd9 213d 4b0f b63b 245f 243d 58a7 f0bb
000000c0: 5c43 f4bc d45f 893c 197a a9bb 1926 2f3d
000000d0: a35d 7cbc f3e9 89bd 7cd0 c1bc be33 58bd
000000e0: e3be 18bd 3524 083d e264 f2bc 596e 013b
000000f0: e563 0a3d 68b1 633d bfb8 253d e9ab 3abc
00000100: 434c e1bb d6a2 89bc b7f1 2d3d e4ff 83bc
00000110: 9423 26bc 5072 523d cbd9 57bc 4269 40bb
00000120: b62d fabc 240f 48bc 48a4 0fbd bffa 3fbd
00000130: 83f4 44bc 32d8 31bd 4b90 b6bb 103c 2bbc
00000140: 0e20 1ebd 7bef e93a a7d3 2f3b ce7e ccbc
00000150: 9cab ae3a 8b8b 0ebc 0806 a83c efb6 49bc
00000160: aea4 013d 5394 a0bc 7481 8dbd a4f7 ab3b
00000170: bd70 f5bb ac56 523c 9b8a 373d d369 04bd
-0.02101059 -0.06327523 -0.019731678 0.015547339 0.017553503 0.03657385 -0.02509881 -0.009376051
-0.038142145 0.028024407 -0.0068849493 0.023564182 -0.021404793 0.009492383 0.0589102 0.005839292
0.011074307 0.007532006 -0.06466954 -0.024048148 -0.009632177 0.0021597315 0.0032750894 0.030123731
-0.023425652 0.029060893 -0.04852846 -0.017283117 -0.055266395 -0.018588718 0.038222633 -0.0085191885
0.034547642 0.029206244 0.05682833 -0.025156539 -0.039154038 -0.02980001 0.05627697 0.01712111
0.024080139 -0.010702909 0.05169307 0.017760789 0.039514527 0.0055560223 0.040129796 -0.0073441677
-0.029817276 0.016769327 -0.005172026 0.042760942 -0.015403184 -0.067340754 -0.023658983 -0.05278372
-0.03729142 0.033237655 -0.02958912 0.001974961 0.033786673 0.05558911 0.04045939 -0.011393526
-0.006875546 -0.016801279 0.042466845 -0.01611323 -0.010140318 0.05137855 -0.0131744845 -0.0029359614
-0.030539375 -0.012210641 -0.03506878 -0.04686999 -0.012021187 -0.04341907 -0.0055714003 -0.010451332
-0.03860479 0.001784786 0.0026829035 -0.024962809 0.001332629 -0.008700262 0.020510688 -0.012311681
0.03165119 -0.019601976 -0.06909457 0.005248027 -0.007490246 0.012838047 0.04480992 -0.032327484

feature_extractor.6.weight f4 [96]
00000000: 4b4e 1540 3c28 5840 b1c1 1440 edc2 ad3f
00000010: b20b b93f 3c06 9d3f d353 813f 9bfa 9d3f
00000020: b2c7 aa3f 17b9 ae3f 7d29 9a3f 8be3 2140
00000030: 0fd6 2540 9bba d93f b2bf b73f edd8 d43f
00000040: d76d af3f b9af b23f 21f7 993f 2fdf 9a3f
00000050: d701 ab3f fc5b ef3f aabc f13f 03aa ab3f
00000060: 57e1 d03f bc73 c53f 76cb 3c40 70d8 2c40
00000070: 3ebe 4240 7ff5 3940 8316 ac3f 4ad5 2c40
00000080: 9ecc 903f b930 b23f 95a6 b83f c004 6f3f
00000090: ed7b 1340 605a be3f d45e ac3f 7b2d 7f40
000000a0: cc7f e73f 1887 2840 be0b 5240 eac0 b33f
000000b0: 8382 1140 a00d ab3f 7351 f13f 5c1b aa3f
000000c0: a77f 9e3f 6600 2d40 735f a23f e0bf 9f3f
000000d0: 9d61 b33f 7e19 1340 df34 c83f bc07 8d3f
000000e0: ab2d 933f b8e4 1640 557d 943f 6b3a 9b3f
000000f0: 312b d83f 1e9d 0d40 558f c53f fabf 9f3f
00000100: 5f10 a03f 6885 1b40 ce61 1e40 3d47 2940
00000110: 10e4 cd3f 8ceb ec3f 74cf 5540 6bf0 7a40
00000120: 80a1 0740 f48f 963f 897d 4540 ebab bf3f
00000130: 13dc 2b40 c70b 8f3f b618 cc3f 2250 5640
00000140: cfbc ee3f 65e9 4b40 775f f73f bad9 a33f
00000150: 079b c03f 58a6 2140 1eb3 753f c2b3 b43f
00000160: f4b0 c53f c277 c03f a293 c03f 6aea b13f
00000170: e884 c43f 45b9 683f d3db 7240 55de 833f
2.3329036 3.3774557 2.324322 1.3575112 1.4456694 1.2267528 1.0103706 1.2342104
1.3342192 1.3650235 1.2043911 2.5295131 2.59119 1.7010072 1.4355376 1.66287
1.3705395 1.3959876 1.2028543 1.209936 1.3359936 1.8699946 1.8885701 1.3411258
1.6318768 1.5425944 2.9499183 2.7007103 3.0428615 2.905609 1.344437 2.7005181
1.1312444 1.3921119 1.4425837 0.9336662 2.3044388 1.487133 1.3466439 3.987151
1.8085876 2.6332455 3.2819667 1.4043248 2.2735908 1.3363533 1.8852981 1.32896
1.2382706 2.7031493 1.2685379 1.2480431 1.4014164 2.298431 1.5641135 1.1017985
1.1498312 2.35771 1.1600748 1.2127203 1.6888181 2.2127147 1.5434366 1.2480462
1.2504996 2.4300175 2.4747195 2.644973 1.6085224 1.8509383 3.340787 3.920924
2.1192322 1.1762681 3.085787 1.497434 2.6853073 1.1175469 1.5945041 3.348641
1.865137 3.1861203 1.9326009 1.280082 1.504731 2.5257778 0.95976436 1.4117358
1.5444627 1.5036547 1.5045054 1.3899662 1.535306 0.909077 3.794667 1.0302225

feature_extractor.6.bias f4 [96]
00000000: 658c 61be 30fb 653f 082a 55bf f04e 7cbf
00000010: c28b b5bf 7876 a8bf 0e22 5fbf 423a a4bf
00000020: ccdf 8cbf f9bc 81bf 076e 8bbf d4bd 06bf
00000030: 9926 11bf 93d0 05bf 5614 8cbf 3322 97bf
00000040: 17ac b1bf c278 46bf 30a9 a4bf 5522 5fbf
00000050: aaed 71bf ffc7 9dbf bf2c 98be 6c54 d3bf
00000060: 9039 28bf f874 b4bf ad28 a53e b66e babe
00000070: 92fd b83e a232 003f dd00 b2bf eb16 1a3e
00000080: 0f88 8ebf 2ad7 a6bf 6b9c 64bf c738 75bf
00000090: f051 0abf b2eb 80bf 83a3 c2bf 055f 003e
000000a0: 3499 2fbf 7efb 3ebf 5df5 a43e 4e43 a2bf
000000b0: 4d92 06bf 5c7d bbbf 59ee 1cbf b59c 96bf
000000c0: dc9f 9fbf 45ef cd3d c3d9 8ebf 72c4 b7bf
000000d0: de73 66bf a6a1 3dbe 14d0 bdbf dc2f 7abf
000000e0: 3d54 84bf 035a 5a3d 8198 aabf 9df3 94bf
000000f0: 40d6 6dbf f287 93be 2fd6 07bf 99af bbbf
00000100: 02b0 a9bf 7181 c2be 8ab5 573f 3008 693d
00000110: a761 a5bf 2e57 c3bf 969d 4d3f 381c c13e
00000120: 1513 f2bd 69f9 87bf 0189 2c3f 02ae 59bf
00000130: 2430 bfbe 32ac 77bf 406f 6fbf 73de eebe
00000140: 2c7c b1bf 7578 653f 1e33 d2be 9107 6fbf
00000150: dfd7 9bbf 231f 0cbf 0ecf 54bf 93ad acbf
00000160: 8e4f babe f190 89bf d2c2 55bf 9de8 8fbf
00000170: b891 73bf 2097 5fbf 887b b63d 9cd6 ebbe
-0.22026213 0.89836407 -0.8326726 -0.9855795 -1.4183276 -1.3161154 -0.8716134 -1.2830279
-1.1005797 -1.0135795 -1.0892953 -0.52633405 -0.5669952 -0.52271384 -1.0943706 -1.1807312
-1.3880643 -0.7752801 -1.2864132 -0.8716176 -0.9450327 -1.2326659 -0.2972164 -1.6510139
-0.65712833 -1.4098196 0.32257596 -0.3641259 0.3613096 0.5007726 -1.3906513 0.15047805
-1.1135272 -1.3034413 -0.89301175 -0.9578976 -0.54031277 -1.0071929 -1.520615 0.12536247
-0.68593144 -0.74602497 0.32218447 -1.267679 -0.5256699 -1.4647632 -0.6130119 -1.1766573
-1.247066 0.10055403 -1.1160206 -1.4356825 -0.9002055 -0.18518695 -1.4829125 -0.9772928
-1.0338207 0.053308498 -1.332779 -1.1636845 -0.92905045 -0.28814656 -0.53061193 -1.4662963
-1.3256838 -0.3798938 0.8426138 0.056892574 -1.2920426 -1.526098 0.8031858 0.37716842
-0.11820046 -1.0622989 0.6739655 -0.8503114 -0.37341416 -0.96747124 -0.9352913 -0.4665409
-1.3866019 0.8963693 -0.41054624 -0.9337092 -1.2175254 -0.5473501 -0.8312844 -1.3490471
-0.3638882 -1.0747358 -0.835004 -1.1242863 -0.95144224 -0.87339973 0.089102805 -0.4606217

feature_extractor.6.running_mean f4 [96]
00000000: 52a7 843f 26c3 8840 50f2 3ac0 78e9 a1bf
00000010: 2f43 a4c0 5fee 61bf 7a8b 2dc0 8685 83c0
00000020: 6301 253f 2c3a 5fc0 e406 89c0 4699 1040
00000030: 45c5 cf3f 9084 59c0 4ab1 e9bf 06ad 88c0
00000040: ceec 01c1 c1bf 05bf 82e7 02c0 e2b9 66c0
00000050: 00bb bec0 a72d a6c0 59a0 613f f02a 92c0
00000060: 3109 cd3f e44f b1c0 51b7 7440 91e1 1940
00000070: 5806 b43e 3149 c63f ea08 2ec0 e3d2 b33f
00000080: ba2f 48c0 c0f2 aebf 1f35 c4bf 39bd c8bf
00000090: 5c44 613f f6b5 7cc0 92b3 3ac0 8d80 e43f
000000a0: 88cd 18c0 30e8 22bf e51c 083f 0b1d 9dc0
000000b0: 4ce7 0dc0 cf7f c4c0 14eb ca3e 1151 c9c0
000000c0: 3aee 66c0 db8c 343f 71ff 80bf 329d 1bc0
000000d0: a7b6 51bd 7fb0 913f 28f1 27c0 b900 46c0
000000e0: f351 d4bf 3946 823e 6286 94c0 4b0f 67c0
000000f0: a146 a13d 85b8 973e 489f 2540 0a38 ddc0
00000100: 6641 f1c0 d10f 70be 5363 2240 6c1e bfbd
00000110: 151d 5ec0 31a8 94c0 c96a 3c40 3e4d 4040
00000120: 23e7 d83f 5bdb b4bf bd92 bc3f d42c 52c0
00000130: ca55 773f 243d 83c0 477e 7c3d 5905 643f
00000140: f07e 8cc0 109e 6940 6d70 af3f f4d2 b4c0
00000150: 4660 31bf a8e6 a240 02cf bfbe 1dfe 55c0
00000160: e0c3 72bf 178f d1bf a71d f8bf 7d8f c5c0
00000170: a298 5cc0 e3aa 73c0 5881 5340 4a2b 0740
1.0363562 4.273822 -2.9210396 -1.2649374 -5.133201 -0.8825435 -2.711638 -4.1100492
0.6445524 -3.4879255 -4.282091 2.259355 1.6232077 -3.398716 -1.8257229 -4.271121
-8.120314 -0.5224572 -2.04538 -3.6050954 -5.960327 -5.193073 0.88135296 -4.5677414
1.601843 -5.5410023 3.8236887 2.4043925 0.3516109 1.5491086 -2.719294 1.4048733
-3.127913 -1.3667831 -1.5328711 -1.5682746 0.87994933 -3.948606 -2.91721 1.785173
-2.3875446 -0.6363554 0.5316909 -4.9097953 -2.2172422 -6.1406016 0.39632475 -6.291146
-3.6082902 0.7052743 -1.0077955 -2.4314694 -0.05119958 1.1381987 -2.624094 -3.093794
-1.6587509 0.254442 -4.641404 -3.6103084 0.078747995 0.29632965 2.5878468 -6.9130907
-7.539233 -0.23443533 2.5373123 -0.093319744 -3.470525 -4.645531 2.9440176 3.0047145
1.6945537 -1.4129442 1.4732281 -3.283986 0.9661528 -4.1012135 0.061643865 0.8907066
-4.3904953 3.6502724 1.3706185 -5.650751 -0.69287527 5.0906563 -0.37462622 -3.3436348
-0.9483013 -1.6371793 -1.9384049 -6.1737657 -3.446816 -3.807305 3.3047695 2.1120172

feature_extractor.6.running_var f4 [96]
00000000: a0d0 a142 5120 8c42 e938 8742 383c 4342
00000010: 7c54 6e42 2d65 8a42 f751 8a42 513a 7342
00000020: 8dce 7342 9c2c 4942 32c3 5a42 02c0 9d42
00000030: e197 8b42 88e8 8642 775f 7c42 437a 8642
00000040: 04ec 8c42 04b4 3742 01fa 6342 c730 6842
00000050: 41c7 9042 c071 b142 e88d 7442 c5f4 8d42
00000060: ed61 6d42 f587 7742 7e1a 7b42 fdd6 8c42
00000070: e5d7 9642 10e1 9042 eea0 6542 ef36 b042
00000080: a1f5 5b42 4cda 6642 141b 7042 5620 5142
00000090: c94f 9842 05c7 7842 e2e7 5942 b2ea a642
000000a0: 7f58 9742 c49d 9742 a50f 9f42 9e82 8742
000000b0: ddf5 9842 99b3 7542 73e7 8642 4bb7 7b42
000000c0: ec46 5a42 e8ce 8442 ae74 4842 3d8f 4e42
000000d0: b6f0 8842 a5b4 4c42 e8a6 7e42 5060 6d42
000000e0: 0f11 5c42 dec5 8842 4e57 6342 2b63 5942
000000f0: bdde 6942 fe35 5a42 e991 6342 3eb0 8a42
00000100: 2dbb 8142 f6de 7542 e40f 9742 1d7e 6d42
00000110: 1e20 7142 5ec5 a842 ebdd 9d42 0131 c642
00000120: 64eb 9242 755a 8842 d410 9d42 8c7f 7f42
00000130: e3c5 be42 40de 4c42 c696 5e42 c340 a842
00000140: 1942 8b42 cba5 8342 0fac 8642 9df8 8342
00000150: 24d7 8642 8170 ad42 1d81 4242 b3c3 7e42
00000160: 5717 8342 3dcc 7442 12f9 6642 906a 8d42
00000170: 90c2 6f42 3b3e 4742 cb23 8c42 7a54 1f42
80.90747 70.06312 67.61115 48.808807 59.582504 69.19761 69.16009 60.80695
60.95171 50.293564 54.69062 78.875015 69.79664 67.45416 63.093227 67.23879
70.46097 45.925797 56.994144 58.047634 72.38917 88.72217 61.13858 70.978065
59.34563 61.88277 62.77587 70.4199 75.42167 72.439575 57.407158 88.10729
54.989872 57.71318 60.026443 52.281578 76.15583 62.194355 54.476448 83.45839
75.672844 75.808136 79.530556 67.75511 76.4802 61.42539 67.45205 62.928997
54.56926 66.40411 50.113945 51.63988 68.47014 51.17641 63.662994 59.344055
55.01666 68.38646 56.83526 54.346844 58.467518 54.552727 56.89249 69.34422
64.86558 61.467735 75.53104 59.373158 60.281364 84.38548 78.93343 99.09571
73.45975 68.176674 78.53287 63.874557 95.3865 51.21704 55.64724 84.12649
69.6291 65.823814 67.33605 65.98557 67.4202 86.719734 48.626087 63.691113
65.545586 61.19945 57.743233 70.70813 59.940002 49.810772 70.06991 39.832497

feature_extractor.10.weight f4 [64, 96, 7]
00000000: 43c8 423e 3879 f23e 5958 933e ec39 8abf
00000010: 5d31 eebe e6d4 19be a586 34be 181f 4b3e
00000020: 9901 4a3f dd0f 7abe b0db 80bf 38e5 6a3d
00000030: 010e b93e 07e5 c23c 8d84 65be 75d4 873e
00000040: 7a8b 8fbe cf99 25bf ce49 9bbe 69fe 9abe
00000050: 666a 723e 017c 743e 2c38 4abd d7c4 c0bb
00000060: 517c 223f f402 f33e 4dde ec3e 3557 d23c
00000070: 6dc4 1fbe d2c4 0ebf 3e74 73bd 99a3 563e
00000080: de2e f13e 020d 203c 5994 42bf 85de aabe
00000090: 267d ef3c 8b42 913f c20f 7e3e 13b9 573e
000000a0: 8da7 3e3f 6f72 d73e 5187 3cbe 2207 a4bd
000000b0: 3f91 33be ed66 af3e 3acf 45be bc72 973e
000000c0: 644e 523f 225e 9bbe 6357 23bf 5387 633f
000000d0: 2948 fc3e 25bf a53e 4f4b 87bd be84 21bd
000000e0: ec65 e1be 5d03 28be 8ca9 a73d abaf 98be
000000f0: fcec 27bf 7f85 35bf a80f 3c3e 026f a4bd
00000100: 9e76 db3e 551e 553e 98b5 b73c e9f6 8f3e
00000110: 6ea3 743f f1e5 e6be a202 1e3f 660a ad3e
00000120: f12c 833c 316f 273f f709 823e e7fd a2be
00000130: d3a7 e93e fd17 303e f5fa fc3e 6d66 04bf
00000140: d0b1 04bf 51c1 613c 79b3 72be 7953 a23e
00000150: ae6b 0ebe 6447 8bbe a796 053f 742d cbbe
00000160: c496 80be 0343 30be 6c8c c63c e990 383f
00000170: b747 b93e a24c 39be d2cc 71bf cac8 853e
00000180: 29ac 91be 838f 383f d29e c0be d956 07be
00000190: 8bf9 373e 4662 b23e b344 b3be 74ed 5cbf
000001a0: 6d52 e63e bea1 c1be 47cb 79be e96a 903e
000001b0: 4adf d13d 8418 98bf c924 82be 9dbb 933f
000001c0: d569 97be 6698 c8be 68d8 05bf 6012 c83d
000001d0: cdb2 ee38 516f 733e f4a4 3bbf d436 893e
000001e0: 3f60 d53e 1f58 d53b ec94 40be b657 0b3e
000001f0: 240e 02bf 2753 163e 036f 7dbf 8b6d 0a3f
00000200: 8e4c 173e 5c68 bdbd fcde de3e 8830 463e
00000210: ef56 36bf 1efa 243e f08f 12bf a87b 5ebe
00000220: 5753 f9be e5a1 b3be d0fd a7bd 88f3 c23d
00000230: 639c 793e 3c19 433f e92a 6ebf d151 b8bd
00000240: aa86 373f d80a c63e 2a4e d4be f089 64be
00000250: 6b55 913d d5a3 f63c 02c2 bbbe 4a30 21bf
00000260: de54 b03e 1551 323f f08b 813f 6ff9 bb3e
00000270: f651 eabe b0af f7be 4505 3c3e 22f1 cd3e
00000280: 6a6d 1e3f 5365 0d3f fd68 a5be e840 3b3e
00000290: 0d99 943e 0a42 b83e 0c0f 213f 6d91 49be
000002a0: 0da3 653f 497f 783d eddf 343f 701d 03bf
000002b0: f77c dcbe b8ba ebbe 10d5 8cbe d138 773e
000002c0: 9d84 41bf bfa7 14be 6047 313f 7d46 443e
000002d0: 75c0 a63e 0e2b 23be 50cb 78be 4d3c 573d
000002e0: b0bf 293f 092d 80be 34ac b0be 9ae2 aabe
000002f0: f61e 2bbe e86b f83e d4b2 883e 3bd7 0a3e
00000300: 377b 7fbe 8ee9 09bf 0f61 dabe 3b3f c93d
00000310: 2c9e 2b3f 206f aabd 7ab8 163f 27e4 7cbe
00000320: 1dc2 d9be eaa6 13bf 5d89 303f e4ee 373f
00000330: 5aff dc3a c207 12bd 398f 17bf 272a 6abf
00000340: 2528 053f aa40 0f3f 1dc9 ebbe 2a24 a5bd
00000350: 86eb 0fbf 4477 593f da6c aa3d 327a 253f
00000360: 6096 ad3e 42ef 8c3d 36d0 0f3f 09b2 063c
00000370: e7f1 14bf e14c 88be 841e e1be 147d 363f
00000380: 432d d1be 341a 2abf 2378 8a3e 718b 8f3d
00000390: 4900 5b3e 3f30 a53e cf46 8bbe 8286 b6be
000003a0: 8f90 423f eeb3 543e 590f db3e 94b1 95be
000003b0: 67e3 813e 1541 9c3e c3a6 643f d80a 69be
000003c0: 7a42 00be 9ab3 0bbb 428b 613f bbff 01bd
000003d0: 0789 32bd 68d1 8b3e a009 3cbc 02d9 3c3f
000003e0: 281d 38bf f791 15bf fa37 30bd da3e 163f
000003f0: 3c1d c73e 6e20 333e 6a3a 9a3e 55aa 87bc
0.19021706 0.47358108 0.2877834 -1.0798926 -0.46522036 -0.1502262 -0.17629488 0.1983608
0.7890869 -0.24420114 -1.0067043 0.057347506 0.36143497 0.02379085 -0.22413845 0.2652928
-0.280361 -0.6468782 -0.30329746 -0.30272225 0.236734 0.23875429 -0.049369976 -0.00588284
0.6347094 0.4746319 0.46263352 0.02567635 -0.15602274 -0.55769074 -0.05943703 0.20960845
0.4710607 0.009768726 -0.7600761 -0.33372894 0.02923448 1.1348432 0.24810699 0.21066694
0.7447441 0.42079493 -0.18410994 -0.08009173 -0.17535876 0.34258214 -0.19317332 0.29579723
0.82150865 -0.30345255 -0.63805217 0.88878363 0.49273804 0.32372394 -0.06606161 -0.039433233
-0.44023073 -0.16407533 0.081866354 -0.29821524 -0.65595984 -0.70906824 0.18365347 -0.080289856
0.42863935 0.20812352 0.022425458 0.28118065 0.95561874 -0.45097306 0.6172277 0.33796996
0.01601264 0.6540404 0.25398228 -0.31834337 0.45635852 0.17196651 0.49410215 -0.5171879
-0.5183382 0.013779 -0.23701276 0.3170431 -0.13908264 -0.27202904 0.52183 -0.39683115
-0.25115025 -0.17213063 0.02423688 0.72096115 0.36187527 -0.1809564 -0.94453156 0.26129752
-0.2845166 0.7209398 -0.3762117 -0.13216724 0.17966287 0.34840602 -0.3501335 -0.86299825
0.4498476 -0.37818712 -0.2439395 0.28206566 0.10247667 -1.1882482 -0.2541869 1.154163
-0.2957293 -0.3917877 -0.52283335 0.0976913 0.000113820286 0.23772933 -0.73298573 0.26799643
0.41674992 0.006510749 -0.18806809 0.13607678 -0.50802827 0.14680158 -0.98997515 0.540734
0.14775297 -0.092484206 0.435295 0.1935445 -0.712264 0.16111037 -0.5725088 -0.21726859
-0.48696396 -0.35084453 -0.08202708 0.09519106 0.24376063 0.7621038 -0.93034226 -0.0899998
0.71689856 0.38680148 -0.41465884 -0.22318244 0.0709637 0.030107418 -0.36671454 -0.6296431
0.3443975 0.6965497 1.012083 0.3671374 -0.45765656 -0.48376226 0.18361385 0.40223032
0.618857 0.55232733 -0.32306662 0.18286479 0.29023018 0.35987884 0.62913585 -0.19684382
0.8970192 0.060668264 0.70654184 -0.51216793 -0.4306409 -0.46040893 -0.27506304 0.24142767
-0.75592977 -0.14517115 0.69249535 0.19167514 0.32568708 -0.15934393 -0.24296308 0.05254774
0.66308117 -0.2503436 -0.3450638 -0.33376008 -0.1671103 0.48519826 0.26698935 0.13558666
-0.24949346 -0.53872 -0.42652175 0.098265134 0.67038226 -0.08321977 0.5887524 -0.24696408
-0.4253091 -0.57676566 0.689596 0.71848893 0.0016860769 -0.03565193 -0.59202915 -0.9147057
0.5201438 0.55958045 -0.46051875 -0.08063538 -0.56218755 0.8494761 0.08321543 0.6463958
0.3390379 0.06881572 0.5617708 0.008221158 -0.58181614 -0.26621154 -0.43968594 0.71284604
-0.40854844 -0.6644623 0.27044782 0.07009018 0.21386828 0.3226337 -0.2720246 -0.35649496
0.7600183 0.20771763 0.42785147 -0.29237044 0.25368807 0.30518404 0.8931696 -0.22758043
-0.12525359 -0.0021316768 0.88103116 -0.031738024 -0.04358771 0.27308202 -0.011476904 0.7376863
-0.7191949 -0.5842585 -0.043022133 0.58689654 0.38889492 0.1749284 0.3012269 -0.016560713

feature_extractor.10.bias f4 [64]
00000000: b19d 433d cffe 6e3c 2a91 f23c 8a0b dabc
00000010: 4a0d 2d3d e325 863a 4906 3ebc b052 a6bc
00000020: 31d8 ab3c 239a a8bb d5b7 753c 76ab ad3b
00000030: 7207 de3c 0cd3 453d b79c 28bc 9c53 823c
00000040: 14ee 103d b183 c3bc 1ffc 76bc d003 26bc
00000050: e5e7 06ba 8553 88bc 04ee 013d e522 47bd
00000060: 9863 1fbd 46d2 0fbc 51f9 543b 867f 4b3c
00000070: a816 d13c c503 183d d8c1 e1bc 8fba b93c
00000080: 4cee eb3c d58a b0bb 87b3 0d3d 84ae 063d
00000090: 4661 aebc 55b8 ccbc f334 be3c de0a 2abc
000000a0: 975a 843c 538e d43c 4ee5 c7bb 5808 093b
000000b0: fbe9 713c add7 273b 46bb 1dbc c9ce d7bc
000000c0: 2221 eebc acb7 99bc b2fa a5bb d08e 233c
000000d0: feb0 81bc 9356 d63c 00fa 613c ea9b a73c
000000e0: 50a9 f83c 06b1 8bbd 862a 8abc 2fad ed3b
000000f0: a0e6 bf3c e9eb 85bc 055d 04bd e854 513c
0.047757808 0.014587118 0.029610235 -0.02661683 0.042249 0.001023468 -0.011598178 -0.0203031
0.020977112 -0.0051453277 0.014997442 0.0052999808 0.02710316 0.048296973 -0.01029127 0.015909009
0.0353833 -0.023866506 -0.015074759 -0.010132745 -0.00051462493 -0.016641388 0.03172113 -0.048617262
-0.03891334 -0.00877816 0.0032497237 0.012420541 0.025523499 0.03711297 -0.027558252 0.022671966
0.028800152 -0.005387644 0.03459504 0.032881275 -0.021286618 -0.02499024 0.023218608 -0.0103785675
0.016156478 0.025946772 -0.0061003333 0.0020909514 0.014765258 0.002561073 -0.009627169 -0.02634372
-0.029068533 -0.01876434 -0.0050652856 0.00998278 -0.015831467 0.026164329 0.013792515 0.020460088
0.030354172 -0.06820874 -0.01686598 0.007253311 0.0234254 -0.016347842 -0.032315273 0.012776591

feature_extractor.11.weight f4 [64]
00000000: fa61 a43f d117 3f3f f43f d13f 3527 1a40
00000010: 618f 633f e6d6 4e3f bbe9 433f 8a15 9f3f
00000020: ce0c 983f b34c 433f a4dd 4a3f 95a7 803f
00000030: 492f 8e3f 8ea3 7c3f f4bc 013f aca3 333f
00000040: b5d6 313f acdf 583f 4ca1 843f d97a f73f
00000050: e17e 563f be70 513f 9194 5b3f bf14 913f
00000060: b61f 573f ac98 4d3f 75ae 3e3f 23a6 4a3f
00000070: 7893 6b3f 48a4 b33f 573a 593f 6539 3e3f
00000080: 026a 883f 0946 2a3f e4d8 843f fac9 4b3f
00000090: 5b18 393f 6b39 233f 6a20 2e3f df5f 763f
000000a0: f237 4a3f 0198 183f b295 4e3f 4ebb 193f
000000b0: b128 1f40 e8a3 6d3f 9a4c 4b3f a176 243f
000000c0: bb5d 9a3f e0b4 2e3f 6010 553f 6f52 0340
000000d0: 9323 403f db91 243f 06c0 123f a8c9 983f
000000e0: 642c 2d3f 1f6e 663f 451b 823f c2e6 473f
000000f0: fc28 4b3f 5d53 413f 087e 193f d918 523f
1.28424 0.74645716 1.6347642 2.408643 0.88890654 0.8079666 0.7652852 1.2428448
1.1878908 0.7628891 0.79244447 1.0051142 1.110818 0.98687065 0.50678945 0.7017162
0.6946824 0.84716296 1.0361724 1.9334365 0.8378735 0.81812656 0.8577357 1.1334456
0.8403276 0.80311084 0.7448495 0.79159755 0.92021894 1.403451 0.84854645 0.7430633
1.0657351 0.66513115 1.037869 0.79605067 0.7230279 0.6375949 0.6801821 0.9624004
0.78991616 0.5960694 0.80697167 0.6005143 2.4868586 0.92828226 0.7941376 0.64243513
1.2059854 0.68244743 0.8322811 2.0519063 0.7505428 0.6428506 0.57324255 1.1936541
0.6764586 0.9001178 1.0164572 0.78086483 0.7935941 0.7551783 0.59957933 0.82069165

feature_extractor.11.bias f4 [64]
00000000: afdf 0abf 90d6 4fbf ffc8 86be ae79 62be
00000010: aa19 9abf 51d3 70bf 2f12 1dbf 6eed 98bf
00000020: d2a0 f8be fc6b 99bf e006 b4bf 9e39 01c0
00000030: b32a d9bf c402 6bbf 4aa8 c6be 168a 1cbf
00000040: 42e5 48bf ca01 89bf 71e9 4bbf c7dd 12be
00000050: 7ce0 dbbf d5e6 40bf 5871 a6bf 7e0c 69bf
00000060: 537d bbbe b0a0 dcbf 4bb9 5abf 8b93 60bf
00000070: 44d6 e4bf a8c0 86bf 5ce9 05bf 1ade ebbe
00000080: 4f24 a1be 543f e4be 23ef 95bf 580e babf
00000090: 5576 cabe 5eff bfbe 405a efbe 90c8 99bf
000000a0: c25e 06bf 5b49 5ebf a5c9 b4bf b2e2 2ebf
000000b0: ae3f 283f 4bdf 46bf d555 09bf 47be 08bf
000000c0: 38e2 00c0 b8e8 6ebf bd4e 5cbf 0785 02be
000000d0: 6b71 7bbf b38b 9cbe ca62 22bf ff99 09c0
000000e0: 0a7b acbf db16 83bf 3a83 1ebf 291b 92bf
000000f0: 6553 88bf 89a6 c5bf 81ca 3cbf 752c 9bbf
-0.54247564 -0.8118677 -0.26325223 -0.2211673 -1.2039082 -0.94072443 -0.6135587 -1.1947458
-0.48560196 -1.1986079 -1.4064598 -2.0191417 -1.6966156 -0.91801095 -0.3880027 -0.611482
-0.7847482 -1.0703671 -0.7965308 -0.14342414 -1.7177882 -0.7535222 -1.300334 -0.91034687
-0.36619052 -1.7236538 -0.85438985 -0.8772513 -1.7877889 -1.0527544 -0.52309203 -0.46067888
-0.31473014 -0.44579566 -1.1713604 -1.4535627 -0.39543405 -0.37499517 -0.46748543 -1.2014332
-0.5248834 -0.8683068 -1.4124037 -0.6831466 0.6572217 -0.7768447 -0.53646594 -0.5341534
-2.0138073 -0.9332385 -0.86057645 -0.12746058 -0.9821994 -0.30575332 -0.6343199 -2.1500242
-1.3475049 -1.024135 -0.61918986 -1.1414539 -1.065045 -1.5441447 -0.73746496 -1.2122942

feature_extractor.11.running_mean f4 [64]
00000000: 025e 11bf 8a98 81c1 3f05 9c41 87a7 2741
00000010: 58aa 28c1 ba3a 32c1 175d 7840 b55d 8840
00000020: aa72 6741 3b6d 6dc1 8648 3fc1 0f50 5ec1
00000030: 8109 8fc1 82b0 33c0 4ff8 3abe daeb 8940
00000040: 6ab2 6bc1 e5a7 01c1 78fd b6c0 97fc 8341
00000050: 3cbb 1ac1 2053 4241 a491 bdc1 d1c5 a7c1
00000060: 95ac 9e40 280c a9c1 6a68 8fc0 1bba cc40
00000070: 1042 74c1 8b51 8fc1 a2d5 d43f 209d 1441
00000080: c3a2 5b41 1d33 bb41 f44a 9cc1 db02 91c1
00000090: 0db8 5ac0 fc17 0441 138a 9941 4d4e c2c1
000000a0: 94ce e6c0 eb2f e73f 085d 08c1 8a68 1e41
000000b0: be84 5241 d4f9 99bf bf00 a241 79f5 2140
000000c0: 3e82 88c1 4ce8 2ac1 a651 56c0 313c 2641
000000d0: 1af1 f8c0 4257 9b41 04cd 183f 6929 afc1
000000e0: 10c4 b1c0 93d9 60bf 5dde fa40 5270 60c0
000000f0: cf75 8bc1 e4c1 24c1 0e21 c43f 2d71 56c1
-0.5678407 -16.199482 19.502562 10.4784 -10.541588 -11.139338 3.8806818 4.261439
14.465494 -14.839168 -11.955206 -13.894546 -17.87964 -2.8076482 -0.18258785 4.3100405
-14.731058 -8.10349 -5.718441 16.498335 -9.6707115 12.145294 -23.696114 -20.97159
4.958567 -21.130936 -4.481496 6.397718 -15.266129 -17.914816 1.6627696 9.288361
13.727237 23.399958 -19.536598 -18.126394 -3.4174836 8.255856 19.19242 -24.288233
-7.212717 1.8061498 -8.522713 9.900522 13.157408 -1.2029366 20.250364 2.5306075
-17.063595 -10.681713 -3.3487334 10.389695 -7.7794313 19.417606 0.5968783 -21.89522
-5.5551834 -0.8783199 7.839644 -3.5068555 -17.432524 -10.297337 1.5322587 -13.402631

feature_extractor.11.running_var f4 [64]
00000000: 01b5 7d43 5f00 4b43 b8e9 3e43 c2fc 8143
00000010: bcf8 4443 b9a1 2143 a703 3543 cb64 5d43
00000020: 029e 8a43 caea 4843 361c 5f43 b504 4243
00000030: c8e1 7043 1a5f 4b43 a49c 1b43 f5ef 3743
00000040: 7036 5843 315e 5643 11dc 5f43 c835 6243
00000050: 32a3 3943 c9db 3543 d14e 6643 1512 8d43
00000060: ef45 5e43 0bf5 7143 5268 2543 82f0 5843
00000070: 5604 7743 2bf1 9543 2fcb 0743 a6ac 6443
00000080: b00c 3343 668f 4943 df99 5d43 19c1 5843
00000090: 4e68 5b43 e237 0e43 8a5f 1443 5942 9543
000000a0: fac4 8143 acc2 1543 457f 3543 dbb0 3343
000000b0: 9c86 5343 c180 6643 89db 2343 5fcb 6e43
000000c0: 935a 9443 c77d 4e43 523a 5a43 43d9 8043
000000d0: a38e 1f43 bfcb 2b43 ff5a 6b43 97c3 8043
000000e0: 0f98 2643 1ace 3443 235d 2e43 b7a4 6943
000000f0: 99de 3b43 51e2 4e43 c159 4343 5d5e 3543
253.70705 203.00145 190.91296 259.97467 196.97162 161.63173 181.01427 221.39372
277.23444 200.91714 223.1102 194.01839 240.88196 203.37149 155.61188 183.93733
216.21265 214.36794 223.85963 226.21008 185.63748 181.85854 230.30788 282.14127
222.27318 241.9572 165.4075 216.93948 247.01694 299.88412 135.79369 228.67441
179.04956 201.56015 221.60106 216.75429 219.40744 142.21829 148.3732 298.51834
259.53888 149.76044 181.49715 179.69084 211.52582 230.50294 163.85756 238.79442
296.7076 206.49132 218.22781 257.69736 159.55717 171.79588 235.35545 257.52805
166.59398 180.80508 174.36382 233.64342 187.86952 206.88405 195.3506 181.3686
